etc/neural_networks/classifier.onnx (onnx, 80522 bytes, 13 tensors)

StatefulPartitionedCall/sequential/dense_1/MatMul/ReadVariableOp:0 f4 [12, 1]
00000000: a1d1 1640 a9d3 4bc0 9bbe 1d40 5661 1240
00000010: 414c 0cc0 8d5c 0ec0 4463 09c0 48b5 0ec0
00000020: ac1d 08c0 9fc5 03c1 f247 20c0 66fe fbbf
2.3565447 -3.1847937 2.4647586 2.287191 -2.1921542 -2.2243989 -2.1466837 -2.2298145
-2.126811 -8.235747 -2.5043912 -1.9687011

StatefulPartitionedCall/sequential/dense/MatMul/ReadVariableOp:0 f4 [128, 12]
00000000: 6ece 9e3f 1152 163f 59bb b93f e58d 0340
00000010: 3312 f03c 6b77 bdbf cd6d f1bf 6877 6bc0
00000020: f8a1 30c0 1a09 c3bf 27cc 96c0 4f0f bfbf
00000030: 13c3 1e40 7d00 e8bf 8abf 4640 f596 af3f
00000040: 73f6 e5bf dd81 11c0 d509 2cc0 05cb a9bf
00000050: 4c5b ddbf 61e9 d8bf cdb5 9dbf d739 6ec0
00000060: 1725 283f d6b1 5e3d 0fd1 ab3f ae6a 3240
00000070: 91a2 b6bf 0c06 59c0 3c1e 47bf e6b1 b8bf
00000080: 293b 94c0 8475 3ec0 6313 04c0 48ff 81c0
00000090: 178d a13f a559 b33f d864 403f f23c db3f
000000a0: 7f92 333f c8f3 cfbd bf14 c5be 0f4f 8840
000000b0: 62df 683f 79e3 7cbe 4488 f3bf 7a8a 7cc0
000000c0: 729d 3440 54a4 11c0 7175 f73f 33fd 4340
000000d0: 2b63 f0bf 2bb4 0ec0 6242 b6bd 4b48 1bc0
000000e0: bd6f 40c0 27ff 9cbf f9e8 14bf 5214 60bf
000000f0: 0c25 1e40 882d 73c0 e491 a83f e357 2c40
00000100: f328 cb3e ec6d c9bf 0651 adbf 916f a6bf
00000110: 605d 43bf 9784 1cc0 1ef5 19c0 a37b 01c0
00000120: e270 1fbf 7a6f b63f 27ab dcbf 7551 0ec0
00000130: 8916 8040 d48f 3540 5038 0d40 5a03 0340
00000140: e9bc d2be 97ac 2240 3c9d 29bf 952d 98bf
00000150: b286 ddbf 127f 813e cd17 16c0 3a13 6abf
00000160: affc 4e40 4022 cd3f adc4 273f c7a9 9fbf
00000170: aeb4 d93e d895 2140 7a60 b23e 40e1 2740
00000180: 870a 673f aedf 8dbf a568 46bf fdae 89bf
00000190: b258 fb3f 6b24 5a40 b3cb 153f 6c7c 83c0
000001a0: 13b1 2abf ddbf a3bc 8ad3 b4be c1f1 bf40
000001b0: 1795 5740 91d6 f6bf b037 4d40 154a 5440
000001c0: 3743 bf3f fc8a 2ac0 9515 4ec0 5e09 f03e
000001d0: 5ba8 aebf 1cd7 77bf bf9c 233e 5e52 67c0
000001e0: f1f3 6640 a6f9 75c0 af32 7f3f 3e20 0340
000001f0: b3e5 27bf c03e 74bf 3913 53c0 d1fc 72bd
00000200: 115a 69c0 57d4 17bf a985 1bbf 321a 13c0
00000210: 604a 17bf 18ba 5f3f 2137 4abf 7298 653f
00000220: 9d7d 0140 0589 c3be 795b e9bf 057a 883f
00000230: 1e23 cb3e 0489 9d3f 299d a53e 5499 aebf
00000240: c1f3 a63f 7b6d 9a3f 8ddb 9f3f 9e93 0f40
00000250: 6167 4240 8192 b1bf 6fe8 d3bf f235 13c0
00000260: 3d46 a2bf 29e3 82bf ebc4 2ac0 2169 2a3f
00000270: 531b cb3f 795b 8ec0 5ce7 f33f 5d87 233f
00000280: a5aa 26c0 4b81 a1be f79c b0bf 305d 82c0
00000290: ddb6 26c0 c4fa 0ac0 f4a4 9ac0 5528 e6bf
000002a0: 4fb9 1dc0 90eb 2fbe b986 16c0 23bb b3bf
000002b0: b726 643f 8170 943f 0d0a bebe 5105 a23e
000002c0: 3ca5 1ac0 7783 7b3f 5b32 25c0 b958 c9bf
000002d0: f3d1 e63f 7a30 09bf 767b cb3f 1e4f 5c40
000002e0: cbe8 b4bf 5933 6cbf 7f3e 5ebf a0a2 81c0
000002f0: fa86 0ac0 de1c a9bf 489a 9abf 0f22 a43e
00000300: 4e45 e13f 2eed 61c0 62b9 2540 9293 f63f
00000310: f3e9 09c0 b1c9 86bf 9a65 c1bd 532f a7bf
00000320: 1a40 d4bf 675e 1ebf ff58 1cc0 bd36 e0be
00000330: 2357 853f 106f c63f 49d5 003f 389f 753f
00000340: 5734 3c40 17a0 c2bf abb0 03c0 dd8e bfbf
00000350: 0d96 22c0 d50b 0abf 51fb 14bf fd0b 71bf
00000360: debc 8e40 34cb 6ec0 ba84 2c40 4067 7840
00000370: 4377 2bc0 1d9d 16c0 2b0d 2fbf f542 d7bf
00000380: 6ada 78c0 700c 27c0 369d 7ac0 6c18 99c0
00000390: 924d 7440 323c 62c0 8b3f f93f c861 1840
000003a0: 1601 a4bf 9a2f ccbf bc72 0ec0 7b2d 633f
000003b0: d6b9 58bf cd43 0fc0 bb1e 3fc0 1aa7 9fc0
000003c0: cff1 3cbf 5dae 81c0 49a2 fa3f 8e34 743f
000003d0: 3ec9 813f bf60 b23f e08e 0d40 12ab 85c0
000003e0: 068b 503d 9917 81be c3d8 46bf 42fe c9be
000003f0: 9182 8d3f 72db 76c0 27d7 2e3f d7db 1140
1.2406747 0.58718973 1.4510299 2.0555356 0.029305553 -1.4802068 -1.8861634 -3.679163
-2.7598858 -1.5237153 -4.712421 -1.4926547 2.4806564 -1.8125149 3.1054406 1.3717943
-1.7965835 -2.2735512 -2.6881 -1.3265082 -1.7293487 -1.6946222 -1.2321106 -3.7222803
0.65681595 0.054368816 1.3423175 2.7877612 -1.4268361 -3.390994 -0.7778051 -1.442929
-4.6322217 -2.9759226 -2.0636833 -4.0624123 1.2621182 1.4011732 0.75153875 1.7127974
0.7014541 -0.101539195 -0.3849239 4.2596507 0.90965855 -0.24696149 -1.902596 -3.945952
2.8221097 -2.2756548 1.9332715 3.062329 -1.8780264 -2.2297466 -0.0889938 -2.4262874
-3.00682 -1.2265366 -0.5816799 -0.87531006 2.4710112 -3.799654 1.3169522 2.6928642
0.3967968 -1.573667 -1.3540351 -1.3002797 -0.76314354 -2.4455926 -2.4055858 -2.0231712
-0.6228162 1.425277 -1.7239732 -2.2237217 4.002751 2.8369036 2.206562 2.0470796
-0.41159752 2.541784 -0.66255546 -1.188891 -1.7306731 0.2529226 -2.3452027 -0.9143559
3.2341726 1.6026077 0.6553448 -1.2473687 0.4252066 2.5247707 0.3483923 2.6231232
0.9025044 -1.1083887 -0.77503425 -1.0756527 1.9636443 3.4084728 0.58513945 -4.108938
-0.66676444 -0.019988948 -0.35317641 5.998261 3.3684747 -1.928423 3.206524 3.3170216
1.4942387 -2.664733 -3.2200673 0.46882147 -1.3645128 -0.96812606 0.15977763 -3.6144023
3.608639 -3.8433623 0.9968671 2.048843 -0.6558487 -0.9540825 -3.2980483 -0.059323136
-3.6461222 -0.5930838 -0.60750824 -2.2984738 -0.5909786 0.8739333 -0.7899037 0.8968574
2.0232918 -0.38190475 -1.823104 1.0662237 0.3967523 1.2307439 0.32346466 -1.3640542
1.3043138 1.2064661 1.2488877 2.2433848 3.0375597 -1.3872834 -1.6555308 -2.3001676
-1.2677685 -1.0225574 -2.668269 0.66566664 1.5867714 -4.448666 1.905498 0.6387842
-2.6041653 -0.31543955 -1.3797902 -4.0738754 -2.604911 -2.1715555 -4.832636 -1.7981058
-2.4644353 -0.17179704 -2.3519728 -1.4041485 0.89121574 1.1596833 -0.37117043 0.3164468
-2.416335 0.98247474 -2.5811985 -1.5730201 1.8032821 -0.53589594 1.5897052 3.442329
-1.4133543 -0.9226585 -0.8681411 -4.0511017 -2.1644883 -1.3211935 -1.2078333 0.32057235
1.7599275 -3.5301013 2.5894399 1.9263785 -2.1549041 -1.0530301 -0.09443207 -1.3061317
-1.6582062 -0.61862797 -2.442932 -0.43791762 1.0417217 1.5502644 0.5032545 0.95946074
2.9406946 -1.5205106 -2.057658 -1.4965473 -2.5404084 -0.53924304 -0.5819598 -0.9415892
4.460555 -3.7311525 2.695601 3.8813019 -2.6791542 -2.3533394 -0.6837947 -1.6817309
-3.888331 -2.6101341 -3.9158454 -4.784231 3.8172345 -3.534924 1.9472517 2.380968
-1.2812831 -1.5952027 -2.2257528 0.8874127 -0.84658563 -2.2385132 -2.9862506 -4.989148
-0.7380647 -4.0525346 1.9580775 0.9539269 1.0139539 1.3935775 2.2118454 -4.1771326
0.050913833 -0.25213316 -0.776745 -0.39451796 1.1055471 -3.8571439 0.68297046 2.279043

StatefulPartitionedCall/sequential/dense/BiasAdd/ReadVariableOp:0 f4 [12]
00000000: f500 64ba f908 1db8 91ff b03a 0e42 b9ba
00000010: d28c 1139 fe5f ee37 600e f139 4801 433a
00000020: 5e4c 523a 9f12 40bb da1b 9a3a eeae 003a
-0.00086976524 -3.7440073e-05 0.0013503899 -0.0014134066 0.00013880737 2.841651e-05 0.00045977812 0.00074388506
0.0008022244 -0.0029307974 0.0011757568 0.0004908879

StatefulPartitionedCall/sequential/conv2d_3/Conv2D_weights_fused_bn f4 [32, 16, 5, 5]
00000000: 538b 993d 40eb 903d befa b93d cca1 9b3d
00000010: f6ea 43bc 7058 c8bd 6989 383d 9035 c33d
00000020: 5652 473d bee2 1f3d 99ae 3fbe eca5 a3bd
00000030: 06ce 98bd c7d4 44bd bc01 09be 057a 993d
00000040: 057a 0cbd 82ba a7bd f5d5 953d 9bba d83d
00000050: 25cc 923d d9a0 b43c cb7f a8bc 7c7f a63c
00000060: a7d4 243d 26d9 97bc ce55 283d febc 06be
00000070: ac54 40bd ae8f 023d 76a7 c93d 81e2 03bd
00000080: 8d6e 90bd 33ac 23bd 6246 333d 4edf 92bd
00000090: bd1b 09bd 3c7f 823d 471a 6e3d 3a93 21bd
000000a0: 1552 d0bd fcca 02bb a1c3 b93b 76b3 953c
000000b0: 159d 9fbb 0904 01be c7a2 b4bd 9953 3d3d
000000c0: 621d 843c 2045 0abe 01a1 81bd b05e 66bc
000000d0: 225b 3fbd d1bb a0bd 4680 c5bd 7e5c 0a3d
000000e0: 6124 82bd a9ad e6bd 9ce6 f8bd c53d e8bd
000000f0: e249 b43c 0f6b cf3c 65ab e83d 8d57 b23d
00000100: e0e9 243d 1d90 80bb 5ec1 d3bd 357e 80bc
00000110: 1baf 0ebd f7e4 47bd 8113 af3c e411 503d
00000120: dfac a73d 2cf3 7c3c 9b2a 643d 5a54 c53c
00000130: d176 a33d a482 0dbc 5d0c b73d 2650 8d3d
00000140: a3dc 863d 47fd 1dbe f684 b2bd 4cbc 063e
00000150: b9bf ba3d b08e 99bd 5ecb 24be 0efa d4bd
00000160: 0630 cdbd 9098 0fbe 3e79 053d b0fe 1e3c
00000170: de0e 46be 20b0 9c3d a9a9 b93c 4bdd 9c3d
00000180: c84c a23d 7558 92bd d335 4f3c 83d6 8d3d
00000190: 8608 363d 36df 2b3d e0d4 ccbc 504d e0bd
000001a0: 12dc 44be e7a8 983d 19a4 ae3d a121 833d
000001b0: 156c fb3c 2ede 0f3c 3589 983c 4f91 263d
000001c0: 3d48 ed3c 8b6c b63d 01e3 c5bc 17c5 59be
000001d0: cfbc dc3c 973d ca3d 2735 76bd ccde 23bc
000001e0: a858 09be 25ee c8bd 3756 ce3c 702b 97bd
000001f0: a7e0 f7bd 1995 b9bc 6958 103e 979a f73c
00000200: ada7 6f3c 8499 0abd 7a62 b1bd 5aa3 5cbd
00000210: 90aa 9a3d ac2e 1f3e bc37 5d3d 9434 b8bd
00000220: 3fa5 64bd 22d8 b1bd bf9c 2b3c 78d8 f6bc
00000230: 517f 553d 92ad 40bd bb48 cf3c 5857 663d
00000240: 3e92 c8bd 569c 903d c5e6 023d 8319 093c
00000250: 221b a7bc adce 783d 6c86 0d3e a77f 8f3d
00000260: ccf9 b83c 7bd3 83bc 9401 a1bc 293f 84bd
00000270: abe9 1cbd 33e9 b93d 4010 e13d 90b7 09bd
00000280: 2e74 e8bd 746c f83c 1f0d 053c 7120 c03a
00000290: 1411 56be 7986 afbd 0949 04bd f26d 923c
000002a0: accc 5cbd f628 7dbc 3f5c b23d 6fcb 273c
000002b0: b2a4 063d 071b b43d 96f9 da3c e8fb 0bbb
000002c0: 587e 883d 57bd 433d ed30 7d3d d806 8bbd
000002d0: 656d 03bd bd34 0c3d 74a2 21bd d9d9 813d
000002e0: 535d ef3c 5c6c c6bb 0cf0 1cbd 2899 8e3b
000002f0: 2632 6d3d 292b 7b3d dd25 b33b 0525 4bbb
00000300: 8d54 563d ee59 e23d 5d69 8b3d 744a 02bd
00000310: b930 a9bc 1e4d ddbd 56dc d1bc 655e 1abe
00000320: 2874 943d 3807 133e 5015 113e 22c0 923d
00000330: f353 4abd f138 963c 04bb c5bc 317f 9dbc
00000340: 22de e6bb 0f4b 09bb 421c cabd adec 653d
00000350: 9317 393d cdc9 90bd 6dc1 c8bb d22a 88bc
00000360: 0a2a 24bd 820f 53bd e574 993d 6ca1 cebd
00000370: 5e4b 4ebd c47a a63d d2bb 2b3d 7e6f 26bd
00000380: d1a7 4ebd 5539 bc3d 3ae3 243e e104 223e
00000390: 2ec6 1b3d 7fc2 74bb bdce e0bd 5c83 62be
000003a0: 60e0 eebd 140e 023e 3944 8a3c e593 af3c
000003b0: f85c 50bd 58c9 2fbe d0c3 79bd e9d9 b5bd
000003c0: cdeb 823d 88ae ce3d 7f46 ccbd 17cd be3c
000003d0: 4a0d ac3d f596 203e 0484 103e a5e6 bbbc
000003e0: a15a d13d df50 023e 1ace 9d3d 0ff5 e83d
000003f0: ad87 4e3b 393d 273e cdf1 de3d e26b dcbc
0.07497277 0.070761204 0.090810284 0.0759922 -0.0119578745 -0.09782493 0.04505292 0.095317006
0.048662506 0.039034598 -0.18718947 -0.079906315 -0.07461171 -0.048054483 -0.13379568 0.074939765
-0.034296054 -0.081898704 0.073162 0.10582467 0.07167844 0.022049354 -0.020568749 0.020324461
0.040241864 -0.018536162 0.041097455 -0.13158032 -0.04695575 0.031875305 0.09846394 -0.032198433
-0.07052336 -0.039959144 0.043768294 -0.07171498 -0.03347372 0.06371924 0.05813053 -0.039447047
-0.10171906 -0.0019957414 0.0056690727 0.01827405 -0.0048710206 -0.12599196 -0.0882011 0.046222303
0.016127292 -0.13502932 -0.06329537 -0.014060661 -0.04671777 -0.07848323 -0.09643607 0.033779614
-0.06354595 -0.11263592 -0.1215336 -0.113399066 0.022007886 0.025319604 0.11360816 0.08708105
0.040262103 -0.0039234296 -0.10339616 -0.01568518 -0.034834962 -0.048802342 0.021371605 0.05079831
0.081872694 0.015438836 0.055704694 0.024088074 0.07981647 -0.008637104 0.08937905 0.06900053
0.06585052 -0.15428649 -0.087167665 0.13157767 0.091185994 -0.074979186 -0.16093203 -0.10399257
-0.10018925 -0.14023042 0.03258633 0.009704277 -0.19341609 0.07650781 0.022663908 0.07659396
0.07924801 -0.07145778 0.01264711 0.069256805 0.044441722 0.041960917 -0.02500385 -0.10952246
-0.19224575 0.074540906 0.08527393 0.064028986 0.030691186 0.008780999 0.018620113 0.04066592
0.02896511 0.08907422 -0.024156095 -0.2126659 0.0269455 0.098750286 -0.060109284 -0.010001849
-0.13412726 -0.098110475 0.025187595 -0.07381332 -0.12103396 -0.022654103 0.14096226 0.030225081
0.014627379 -0.03383781 -0.08661361 -0.05386672 0.075520635 0.15545148 0.05400823 -0.089944035
-0.055821653 -0.08683802 0.010474383 -0.030132517 0.05212337 -0.04704053 0.025303235 0.05623564
-0.097935185 0.07061069 0.03195836 0.008367899 -0.02039868 0.060743976 0.13820809 0.070067696
0.02258005 -0.016092053 -0.019654073 -0.06457359 -0.03830878 0.09077682 0.109894276 -0.033622324
-0.113502845 0.030325152 0.008120804 0.0014658106 -0.20904952 -0.085705705 -0.032296214 0.017874692
-0.053906128 -0.01545166 0.08709001 0.010241373 0.03287191 0.087942176 0.02673034 -0.0021359865
0.06664723 0.04778799 0.061814237 -0.06788415 -0.03208675 0.034229983 -0.039461568 0.06340379
0.029219305 -0.006055398 -0.038314864 0.0043517537 0.057909153 0.061320458 0.00546716 -0.0030997407
0.052326728 0.11052309 0.06807206 -0.031809285 -0.020653116 -0.108057246 -0.02561776 -0.15075071
0.072487175 0.14358222 0.14168286 0.07165553 -0.049396466 0.018337699 -0.024137028 -0.019225689
-0.0070455233 -0.002094928 -0.09868671 0.056133915 0.045188498 -0.070697404 -0.006126574 -0.01662198
-0.040079154 -0.05152846 0.07492999 -0.100893825 -0.050364845 0.081288844 0.041927166 -0.04063367
-0.05045301 0.09190623 0.16102305 0.15822174 0.038030796 -0.0037347374 -0.10976932 -0.22120422
-0.1166389 0.12700683 0.016878234 0.021432826 -0.050869912 -0.1716665 -0.060977757 -0.08879454
0.06392632 0.10091883 -0.099743836 0.023291154 0.08400972 0.15682586 0.1411286 -0.022937128
0.10222364 0.12726162 0.077053264 0.11374866 0.0031513975 0.16331948 0.108859636 -0.026906911

StatefulPartitionedCall/sequential/conv2d_3/Conv2D_bias_fused_bn f4 [32]
00000000: 6c78 37c0 c0f9 2ec0 a3cf 3cc0 002a 83c0
00000010: 9979 b6bf 9d50 18c0 6a66 66c0 0d17 d7bf
00000020: 140c 9ebf a8e5 f0bf da11 70bf 201f a3bf
00000030: 3468 00c0 3b0f 80bf 8c93 e1bf 6748 adbf
00000040: 384e 05bf 1e6c 11c0 4833 11c0 4f19 cebf
00000050: 0e7f 15c0 904d dfbf b9d5 0fc0 033b f7bf
00000060: 4a40 83bf d03f 2dc0 8f5e d0bf 845d f3bf
00000070: 5d83 20c0 0140 27c0 88bc 14c0 ec43 7abf
-2.866725 -2.7339935 -2.9501731 -4.098877 -1.4255859 -2.3799202 -3.6000009 -1.680391
-1.2347436 -1.8820086 -0.9377724 -1.2743874 -2.00636 -1.0004648 -1.7623153 -1.353772
-0.5207248 -2.272224 -2.268755 -1.6101474 -2.3358798 -1.7445545 -2.2474196 -1.9314884
-1.0253994 -2.7070198 -1.6278857 -1.9012914 -2.5080178 -2.6132815 -2.324007 -0.9775989

StatefulPartitionedCall/sequential/conv2d_2/Conv2D_weights_fused_bn f4 [16, 16, 3, 3]
00000000: 4106 64bd b9c6 3fbe 2179 b2be f750 32be
00000010: 7e3f 95be 3c53 bfbd 7b5d 3abe b4b0 d8bd
00000020: 22e8 2ebc 4e73 a1be ba15 b0bd 0fd1 1cbe
00000030: 533b 2ebd b6e0 d33c 56ef dabd 2302 733c
00000040: 3d73 1a3d ea49 e2bc fb54 bf3d 3429 803d
00000050: 68a5 dc3d 91a1 8c3e b629 0e3e 9630 fa3c
00000060: 0ed1 3f3d 477f 443c 55f2 943b 678b 14be
00000070: 4990 3cbc b5cc a83d 15a2 efbe 8ff4 60be
00000080: 992c 513d 38e7 3dbe 6a72 9cbe 87a6 75bd
00000090: 20a5 41bd 5991 4b3d edf7 98bd 91c3 483e
000000a0: b81a 223d 0766 aa3b cdb1 743d 4960 ab3d
000000b0: 4d77 083e f17a 11bc cd6e 95bb 7971 46bd
000000c0: fdba b33d 95a5 273e 8a45 b83d 464b 4ebd
000000d0: 57d0 46bd 4cae 17be 5fd2 3abe 5f1a fcbd
000000e0: 6f17 f1bd d856 5b3e 1435 06be a994 2a3d
000000f0: 0ad6 97bd 4919 20be f888 353d b5e9 3a3e
00000100: 4d15 f83d d54b df3d 4f15 16ba 1bd1 aebd
00000110: 45c7 8dbd 7caa 27be b1a2 a7bd 55ab 4ebe
00000120: ddf4 963b b928 103e 6359 4bbd e43a 0d3e
00000130: ba1b b83d 70ca 193e 9a6f d53d e48e 163e
00000140: ce99 bc3d 97a7 993d 2a22 edbd 709f c1bc
00000150: 2a71 ea3d 086a 5fbe ace6 43be cdbf fd3d
00000160: 5dbe 6abe a36b 0fbe 817b 70bd b59a da3d
00000170: 05bc 753c bc7b ef3d 51e9 9a3d 2cc4 d33d
00000180: e4c3 343d 726f d63c 6f73 9b3d 19c3 eb3d
00000190: 96db 403e 8823 123e b991 05bd 80d3 f8bb
000001a0: 73bb 723d 7f58 41bd bd57 0fbe 95ef 16be
000001b0: cf23 4f3e 0d80 863e c953 9fba e7cb f7bd
000001c0: 44cb 21bd dcf9 cebd 6c29 3cbe fe73 bebb
000001d0: 20a8 69be 2d2e c1bd fbaf ddbd 8fc6 533c
000001e0: 919e 2bbe fceb 03be aac5 d1bd cdf7 d0bd
000001f0: 248c 27be 550a 023b 01b8 f33c 9037 dd3d
00000200: fbce 6abc c1f5 00bc c7c6 933c cbc0 413d
00000210: ebc5 72bd 8187 cebc 3a3d 60be aaa7 eebd
00000220: 81e3 6f3e 2985 403e 757a 163e db65 d63d
00000230: d084 073d dfc2 113e 6f15 bf3d 9bbf 41bc
00000240: ae66 b4bd eb09 90bd 4676 253e 5953 0fbd
00000250: 58fa 1dbc cf93 ce3d 82f6 50bd d089 e43b
00000260: 205a d63c c27c 153d 9d1c 03bd b864 173e
00000270: 0228 ccbd 5b35 11bd 2fba d8bd 61c6 00be
00000280: 6099 03bd 1262 f7bb 82f2 b53c e8f0 00be
00000290: bb15 8abc ea8c 0dbb b333 ccbc a151 81bd
000002a0: 9223 dabd 699a 903c 92d3 ef3d 40f8 90bc
000002b0: cd3a 23bc 71e7 e13b 8737 a0bd 1621 0b3e
000002c0: 3f52 d43d da08 6c3d ced6 363e 5a2f be3d
000002d0: fde0 ca3d 1412 d33b 2bdf 43bd 5b8d e3bc
000002e0: b38f a0bd 744b 94be fff3 7f3d 6ecd d6bd
000002f0: 2808 c93c 4db9 863c 1bef e73d 767b cbbd
00000300: cf37 f23c 172f fb3b ccd7 59bd d848 a5ba
00000310: 535c 153d 48f8 523d a84a 0ebd 1f56 84bd
00000320: 4c15 973c a719 54bd a95d a3bc b0e0 8abb
00000330: d1f6 10be 5186 abbe 5b89 0ebe e63c 7ebd
00000340: b988 49be 8284 bcbe 4a69 e23d ae7a 40be
00000350: d3c8 89bd ab96 333b 9a7f 7fbd 0b91 82bd
00000360: 6e67 6b3d c43e fe3d 0809 f63d 8105 3e3e
00000370: 07c2 b83c a856 6c3c cf40 823e 9ad1 acbc
00000380: 3818 0f3c 2f60 f53d daf7 debd eab3 b6be
00000390: e505 0b3e 6407 85be a1f6 a4bd f90b 0dbe
000003a0: 7c31 75be 8df1 643d 65b3 273b acfd 57bd
000003b0: 0908 fbbd e79b 04bd 18a8 d0bd 02bd 7cbe
000003c0: 0c01 febb 89ad 3ebe b7b2 02be 787e 70ba
000003d0: 5545 32be 9edd 0f3c 6658 363d 75c4 0abe
000003e0: 000b 57bd e481 023e d5f6 f5bd db35 dabd
000003f0: ce1d 1c3e 58d7 acbd c881 a5bd fc5d 703e
-0.055670027 -0.1872815 -0.3485804 -0.17413698 -0.29150003 -0.093420476 -0.18199722 -0.105805784
-0.010675462 -0.31533283 -0.08597894 -0.15314125 -0.042537045 0.025863986 -0.10690181 0.014832052
0.037707556 -0.027623136 0.093423806 0.06257859 0.10773736 0.27467015 0.13883099 0.030540746
0.04683023 0.011993236 0.00454549 -0.14506303 -0.01150901 0.0824217 -0.46803346 -0.21968292
0.051067922 -0.18545234 -0.3055604 -0.059973266 -0.047276616 0.04969916 -0.07469163 0.19605853
0.039576262 0.005200151 0.059739877 0.08367974 0.1332676 -0.008879409 -0.0045603276 -0.04844806
0.087758996 0.16371758 0.089976385 -0.050364755 -0.048538532 -0.14812583 -0.18244313 -0.123097174
-0.11772048 0.21419847 -0.13106185 0.04164568 -0.074138716 -0.15634646 0.044320077 0.18253215
0.12113438 0.10903136 -0.0005725221 -0.085359775 -0.06922773 -0.16373628 -0.08185328 -0.20182545
0.0046068267 0.14078034 -0.049645793 0.13791996 0.089896634 0.1501863 0.10421677 0.14702946
0.092090234 0.07502668 -0.11578782 -0.023635596 0.114473656 -0.21817791 -0.19130963 0.12390099
-0.2292418 -0.14005904 -0.058711533 0.10674039 0.014998441 0.11693522 0.07564033 0.10340151
0.04413213 0.026176188 0.075903766 0.11511821 0.18833765 0.14271367 -0.032609675 -0.007593572
0.059260797 -0.047203537 -0.13998313 -0.14739831 0.20228504 0.2626957 -0.0012155707 -0.12099438
-0.03950049 -0.10106251 -0.18375176 -0.005812167 -0.22818041 -0.094326355 -0.10824581 0.012925758
-0.16759707 -0.1288299 -0.102427796 -0.10203514 -0.16362053 0.0019842584 0.029750826 0.10801613
-0.014331575 -0.007871092 0.01803912 0.047303002 -0.05927078 -0.025211098 -0.21898356 -0.11653073
0.2342663 0.18800797 0.14695151 0.10468646 0.033085644 0.14234494 0.0933026 -0.011825467
-0.08808647 -0.07033142 0.16158399 -0.034991596 -0.009642206 0.10086786 -0.05101634 0.0069744363
0.026166022 0.03649593 -0.03200971 0.14784515 -0.099685684 -0.035451274 -0.10582387 -0.12575676
-0.03212869 -0.0075495327 0.022210363 -0.12591898 -0.016856065 -0.0021598884 -0.024926996 -0.063143976
-0.10651316 0.017651754 0.11710276 -0.0176965 -0.00996275 0.006894045 -0.07823091 0.1358684
0.1036725 0.05762563 0.17855379 0.09286375 0.09906194 0.006441364 -0.04782025 -0.027777364
-0.078399085 -0.28963816 0.062488552 -0.10488401 0.024540022 0.01644578 0.113249026 -0.09935658
0.029567627 0.0076655257 -0.053184316 -0.001261021 0.036465 0.05150631 -0.034739166 -0.06461739
0.018442772 -0.051782276 -0.019942122 -0.0042382106 -0.14156653 -0.33500913 -0.13919584 -0.062069796
-0.19681062 -0.36819845 0.110552385 -0.18796799 -0.06727757 0.0027403038 -0.06237755 -0.06375321
0.057471685 0.12414315 0.12013441 0.18556787 0.022553457 0.014424957 0.2544007 -0.02109604
0.008733802 0.11981236 -0.10887118 -0.3568414 0.13576467 -0.259822 -0.08054853 -0.13774098
-0.23944658 0.055894423 0.0025589105 -0.052732155 -0.12257392 -0.032375243 -0.10188311 -0.24681476
-0.0077515896 -0.18620886 -0.12763487 -0.0009174119 -0.1740926 0.008780865 0.044517897 -0.13551505
-0.052500725 0.12744862 -0.1200997 -0.10654803 0.15245745 -0.08439511 -0.080813944 0.23473352

StatefulPartitionedCall/sequential/conv2d_2/Conv2D_bias_fused_bn f4 [16]
00000000: 577b 73bf 580a b7bf d447 d3bf 40c4 36bf
00000010: 12b0 15c0 fbfc 1bbf 7ac0 7cbf 4c5e 56bf
00000020: f7e1 9fbf 6645 c7bf 7826 a7bf df60 84bf
00000030: f29c e6bf e0fe 23bd 70e1 c5bf 59f1 81bf
-0.95110077 -1.4300032 -1.6506295 -0.71393204 -2.3388715 -0.6093289 -0.98731196 -0.83737636
-1.2490834 -1.5568054 -1.3058615 -1.0342063 -1.8016646 -0.04003799 -1.5459423 -1.0151778

StatefulPartitionedCall/sequential/conv2d_1/Conv2D_weights_fused_bn f4 [16, 8, 3, 3]
00000000: 2537 2d3d 41ff b0bb c6df 6bbd 816f 38bb
00000010: a511 80bd d5b5 21bd 9bf9 c6bc e667 04be
00000020: 90a2 0bbe 2bab 0b3d bbe4 c9bd ca6e cfbd
00000030: ee52 09be 1a6c 51be 7703 2abe 0ae1 06be
00000040: 9578 1dbe c665 21be 282c afbd 0216 f8bc
00000050: 7e7c 9cbd fcec e0bc 68af 1d3d 76b6 fbbb
00000060: 31f6 ee3c 38e1 e7bc 5b00 a43c 24e3 f13c
00000070: 1294 9bbd b92b 3dbe 3521 a5bd 0d80 d9bd
00000080: d7c5 b3bd b1cf 92bd 7eeb acbd 293e 86bd
00000090: 3ae6 133e a025 7c3d 9d77 133e db8a 3a3d
000000a0: 5431 28bd fb59 f23c b416 f83d e0f2 0cbc
000000b0: efbc de3c 336a a63d 2f03 023e c1ff 253d
000000c0: b004 523d bce5 ad3c e225 3ebc 09b2 b83d
000000d0: 0b6c c3bc 9bef 293d 39b9 55bc 8139 17be
000000e0: 3fd7 56bd fd59 2bbd b850 15be c1a3 73bd
000000f0: 487f 11bc 39d3 eebd bab1 133d ae0c 043e
00000100: b05d db3c 19c5 ea3d 6ea8 753d f908 6abc
00000110: c541 13bd a23b ae3c 1db3 bcbb f445 04be
00000120: 08dc 9fbc f54d 44bd c20b 1cbd 787d 6dbd
00000130: 0702 c3bd 71e4 15be 3660 a8bd 1ef9 cdbd
00000140: c773 05bd d1cf b7bc 04aa 56bd 30b2 97bd
00000150: b8d8 81bd 7fd7 c6bc 0bdf 3fbb 82f9 d5bd
00000160: f88a c73c f1b3 3d3d 6450 cebc 3ddb 1cbd
00000170: 810f b7bc eb5b 0cbe 66a8 15be 700f 05be
00000180: 41d0 cebd 5c4e 2d3d b6c8 903d e89b 13bd
00000190: f918 543d 03b5 4d3a 69ca 95bd 85a9 e0bd
000001a0: d79b c4bc 382b a13c d541 5b3d 5f0b 28bc
000001b0: 9348 05bd 734a 9fbc 4079 e3bc 0229 253d
000001c0: b100 0b3b 6ff5 18bd 752c bf3c 0717 383d
000001d0: 2974 243d 407a 63bd 26ce 91bd 93bb cdbc
000001e0: 83fb f13c 5bbe 5f3c 0874 babc 1d85 403d
000001f0: cdfc 133d edde 7b3c deb1 ebbd 6ab6 03bd
00000200: 6b34 053c c806 ff3a 894c 02bc 857d d73c
00000210: 9aec af3d 09b0 1e3d 9565 d93c c715 4cbd
00000220: 95fe 6bbd 7b4f 0abe 6fb0 b53a 1aba b33b
00000230: 92d2 b2bc b954 5c3c 9f91 143d c2c8 ed3b
00000240: ac9b c43c f5e4 31bd 1c78 b8bc 0345 acbd
00000250: 28e1 9fba 84b6 763d 8698 53bd a75d 3b3d
00000260: 9c7f 373d 678d edbc 254f 2c3b bbb2 023d
00000270: 9aff 03ba 9ed9 3dbc f480 003d 4db9 9ebb
00000280: 5735 54bd 9d9a babd b25e 53bb 4786 cbbb
00000290: 08c2 0f3c 6e6c 1c3d d10d fc3c 0fdf 4d3d
000002a0: 3e7e 51bd a2e9 713c 4743 873c f761 463d
000002b0: 4001 05bd 2c4b e9bc a447 2e3c 1ef2 1c3b
000002c0: 7ae4 0abd 27eb 38bd 864e 8e3b ba69 0bbe
000002d0: 5e8e b13d 9010 9f3d 4efa 28be d344 773d
000002e0: 4d0d b63c f6ed b9bd 462d 3fbd feeb 9ebd
000002f0: 7e76 923d 6134 8f3d a18a 4d3b eda9 22be
00000300: 55b0 4b3d e95f babc 000a 06be 4056 3fbd
00000310: 9d05 c2bd b92b b73d ac72 5e3d f0c2 8fbb
00000320: 92c2 17bd 5ad4 cb3d 5d6a 1a3d 3a10 0bbe
00000330: 2c3d 53bd 3522 eebd 7e21 2cbe 89bb 1b3d
00000340: a0cc c43c 4bab 92bd b390 51bc e447 8dbc
00000350: 630f 07be bf22 18bc 54ca 0cbd 7da3 c5bc
00000360: 305b a13d cd0f 32bd a332 65bd a886 023e
00000370: e8ba 2b3c 29db c1bd f0e3 da3d d746 3a3d
00000380: 6940 0fbd 4eda fbbd a7ae 66be 965a 7abe
00000390: 2dbd 19be 9e66 b8be fc17 b7be 23a0 84bd
000003a0: 4fd6 e5bd a37e 2dbe 5d60 973d 4e82 703c
000003b0: 1e0a 5abb fe2d 0bbd 03c0 2bbd 24b7 fdbc
000003c0: a60b 62bd e4cc c3bb 2fb5 17bc 381e 273d
000003d0: cfee 0abc 1f12 2b3d 21f0 e5b9 94af de3c
000003e0: 6728 60bc 2918 403d 5bd5 69ba c1e1 6b3c
000003f0: f757 5ebc e1e7 c5bc 5e59 15bd 33fb 073d
0.042288918 -0.0054015224 -0.057586454 -0.0028142633 -0.062533654 -0.03948005 -0.024288943 -0.12930259
-0.13636231 0.034098785 -0.0985808 -0.10128553 -0.13410541 -0.20451394 -0.16602884 -0.13171783
-0.1537803 -0.1576148 -0.08553344 -0.030283932 -0.076409325 -0.027456753 0.03849736 -0.007681663
0.029170128 -0.028305635 0.0200197 0.029527254 -0.075966015 -0.1847371 -0.08062974 -0.10620127
-0.08777969 -0.0716852 -0.08443354 -0.06554825 0.14443293 0.06155932 0.14401098 0.04554258
-0.041062668 0.029583922 0.12113705 -0.008602828 0.0271897 0.08125725 0.12696527 0.04052711
0.051274 0.02122771 -0.011605712 0.090183325 -0.02385523 0.04148827 -0.013044649 -0.1476803
-0.05245137 -0.041833866 -0.14581573 -0.05948234 -0.008880444 -0.11661381 0.036058165 0.12895462
0.026778072 0.11463375 0.05997508 -0.014284366 -0.035951395 0.02126867 -0.0057586567 -0.1291731
-0.019514099 -0.047925908 -0.03809715 -0.057980984 -0.09521871 -0.14637925 -0.08221476 -0.10057281
-0.032581117 -0.022437962 -0.052408233 -0.074070334 -0.06340164 -0.024272678 -0.002927723 -0.104479805
0.024358258 0.046314184 -0.025184818 -0.03829502 -0.02234626 -0.13706939 -0.1461502 -0.1299417
-0.10098315 0.042311057 0.070695326 -0.036037356 0.05178163 0.0007847102 -0.07313997 -0.10969833
-0.024000091 0.019673929 0.05352958 -0.010256617 -0.032539915 -0.01944468 -0.027767777 0.04032231
0.002121013 -0.03734344 0.023336628 0.044943836 0.04014984 -0.05553651 -0.07119398 -0.025113856
0.029538875 0.013656224 -0.022760406 0.047001947 0.03612976 0.015372974 -0.11508535 -0.032156385
0.008130173 0.0019456977 -0.007952818 0.02630497 0.0859005 0.0387421 0.026537696 -0.049825456
-0.057615835 -0.13506882 0.0013861785 0.0054848315 -0.021828923 0.013447934 0.036271688 0.007256598
0.024000011 -0.04343124 -0.02251821 -0.084116004 -0.0012197839 0.060232654 -0.05165913 0.04574361
0.044799432 -0.02899809 0.002629229 0.031908732 -0.0005035341 -0.0115875285 0.03137298 -0.004843867
-0.05180868 -0.091115214 -0.0032252488 -0.0062110755 0.008774288 0.038189344 0.030768307 0.050261553
-0.051145785 0.014765175 0.016511573 0.04843327 -0.032471895 -0.028478228 0.010637198 0.0023948024
-0.0339093 -0.045146134 0.004342857 -0.1361455 0.086697325 0.07766831 -0.16501734 0.06036837
0.02222314 -0.090785906 -0.046674035 -0.07759856 0.07151507 0.06992412 0.0031363147 -0.15885134
0.04972871 -0.022750812 -0.13089752 -0.046713114 -0.09473727 0.08943886 0.05430858 -0.004387252
-0.03705079 0.09952612 0.037699092 -0.13580409 -0.05157201 -0.11627618 -0.16809651 0.038020644
0.024023354 -0.07161578 -0.012790847 -0.017246194 -0.13189463 -0.009285628 -0.034372643 -0.024125809
0.07878721 -0.0434721 -0.055956494 0.1274668 0.010481574 -0.094656296 0.10688007 0.045477714
-0.034973536 -0.12297498 -0.22527562 -0.24448618 -0.15013571 -0.3601579 -0.35760486 -0.06475856
-0.11222517 -0.1694284 0.07391427 0.014679505 -0.003327019 -0.03397941 -0.041931164 -0.030971117
-0.05518689 -0.0059753526 -0.009259506 0.040800303 -0.008479788 0.04176533 -0.00043857194 0.027183332
-0.013681508 0.04689804 -0.0008920037 0.014397086 -0.013570777 -0.02415842 -0.03646218 0.033198547

StatefulPartitionedCall/sequential/conv2d_1/Conv2D_bias_fused_bn f4 [16]
00000000: 4c5d 0dbf 9070 d4be 30e7 0dbf 8049 31be
00000010: 00fd f0bc 2ca0 36bf 94fa 59bf 26fd 18bf
00000020: 00cf a23c b860 a3be e8a9 cdbe 5cb8 62be
00000030: 852b 1ebf 0c5a e43e 21fe 84bf ae39 3abf
-0.55220485 -0.41492128 -0.5543089 -0.17313194 -0.029417515 -0.7133815 -0.85147977 -0.59761274
0.019874096 -0.31909728 -0.4016869 -0.2214064 -0.61785156 0.4459995 -1.0390054 -0.7274426

StatefulPartitionedCall/sequential/conv2d/Conv2D_weights_fused_bn f4 [8, 1, 3, 3]
00000000: aef9 d3bc a051 96bc e10a 153b 60cf ccb8
00000010: 4396 923c 1749 b53c 3abd 433c 6dfb 203c
00000020: c8a3 24bb d315 babc 87a6 e83b 4e6d 823d
00000030: ea04 66bd fb2a bebc cf72 4a3d 46ba cabc
00000040: 0161 eebc 20df 113d f1ab 2dbc 123f 97bd
00000050: bf02 c13b 23d4 d7bb 7266 20bd 7128 de3c
00000060: da2c 943c 88b2 a73c f84a 6e3d 0f1c 523c
00000070: 6d70 82bd 41e1 d2bc a988 1f3d 60c9 24bd
00000080: cbc1 49bc f7a7 6a3d 0f82 9b3c a7ae 943c
00000090: b83b c93c 4bea 3b3c d855 6dba 5198 e43c
000000a0: 41bf 31bc 4022 f5bc 86f1 b13c 942b 81bc
000000b0: af2c 20bd 99e4 2c3d 6101 293c 02c3 e93a
000000c0: 4aef bb3c fde5 debc 5bd3 02bd 9abc c23c
000000d0: aa88 92bc 1451 cdbc b045 a93c a106 5cbc
000000e0: 7e4a 43bc eab0 d23c cd4e d7bc 5d2c 8bbd
000000f0: 82bb 4e3d fd76 9c3c ed4e a0bb 7751 233d
00000100: ff21 cb3b d0b2 163d 7b59 6f3c 1a02 48bd
00000110: c2ba 9dbc 802a d23c b7ad 38bd 2f8e 85bc
-0.025875892 -0.018349469 0.002274208 -9.7661046e-05 0.017893916 0.022129579 0.011946971 0.00982557
-0.0025122035 -0.022715485 0.0070999297 0.063685045 -0.05615703 -0.023213854 0.049425896 -0.024747025
-0.02909899 0.03561318 -0.010600076 -0.073850766 0.00589022 -0.006586568 -0.0391602 0.027118893
0.018087793 0.020470873 0.058176965 0.0128240725 -0.063691 -0.025742175 0.03894869 -0.04023111
-0.01231427 0.05728909 0.018982915 0.018149687 0.024564609 0.011469434 -0.0009053624 0.027904661
-0.010848821 -0.029923558 0.021721613 -0.01576785 -0.039105114 0.042210195 0.01031527 0.0017834606
0.02294125 -0.027209276 -0.031939846 0.023771573 -0.017887432 -0.025063075 0.020663112 -0.013429315
-0.011919616 0.025719125 -0.026282692 -0.06795571 0.05047179 0.019099707 -0.004892221 0.039872613
0.006199121 0.036791623 0.014608736 -0.04883013 -0.019254092 0.025655031 -0.045087542 -0.01630315

StatefulPartitionedCall/sequential/conv2d/Conv2D_bias_fused_bn f4 [8]
00000000: 81eb 04c0 1495 05bf 44ec a23e b76e ddbe
00000010: ce49 f23e 1253 13bf 00c9 2f3f 2836 bdbe
-2.076874 -0.521806 0.3182088 -0.4324853 0.47321934 -0.5754863 0.68666077 -0.3695538

StatefulPartitionedCall/sequential/batch_normalization_4/batchnorm/sub:0 f4 [12]
00000000: 2479 0ec0 96f7 2dc0 ca98 65c0 66ad 6bc0
00000010: d8a2 b4be f83f c9bf 1da0 19bf c021 c0bd
00000020: e0a7 92bc 22a5 1e3e 1e25 533f 3b18 98bf
-2.2261438 -2.7182364 -3.5874505 -3.6824584 -0.3528049 -1.5722647 -0.6000994 -0.09381437
-0.017902315 0.1549268 0.8247851 -1.1882395

StatefulPartitionedCall/sequential/batch_normalization_4/batchnorm/mul:0 f4 [12]
00000000: 7e87 3d3c 371b b33c 2ed6 403c 44b0 3b3c
00000010: 4595 923c 3440 a13c 2884 7b3c d847 af3c
00000020: 5700 673c f13f 7e3a ef98 693c 50f9 8f3c
0.011567948 0.021863563 0.011769814 0.011455599 0.017893443 0.019683935 0.015351333 0.021396562
0.014099202 0.0009698859 0.014257654 0.017574936
