etc/neural_networks/positioner.onnx (onnx, 197613 bytes, 20 tensors)

const_fold_opt__48 f4 [16, 1, 3, 3]
00000000: 7a6a 0c3c 5f5b b53e b23b 0abd 6346 e53e
00000010: 3254 1e3f c7ad 9abd 6fa8 8e3d 9d77 3bbe
00000020: 90f3 44be d406 273f f4c6 523c bc17 143e
00000030: 5987 86bd 0a48 5f3e 7f66 f63d b54f afbe
00000040: a1dd 843e b56a d53e 6e0c 913e e9fa 8bbd
00000050: cb3b 5fbe f8d5 f7bb 1a98 e93e 76d7 823e
00000060: 4214 28be af99 2cbf d444 f73d f585 1d3d
00000070: deb4 233f 186e 303e 6306 073e 6acf eabb
00000080: b0e1 42be 0bc8 a33e 78a3 b4bd e598 a1bd
00000090: e362 15bd 9541 ed3e 9cee 53be fb12 3cbf
000000a0: 7d3a f23d 0ccc f83c 677c e0be 229e f9bd
000000b0: 3f14 163e 2f17 b2bd 577c 143f a75d a53d
000000c0: 77c2 99be a154 ccbe 993d b53e 03d0 a93e
000000d0: fd23 bdbe 9f18 303e ffbc 893e c619 7bbe
000000e0: 1ac1 80be 7dda 98be 985a d2be 2fae ddbd
000000f0: ba97 fabe f803 2a3c 459a 6cbd 21b0 8e3e
00000100: 2606 95bf f9a6 e93d 84f8 3dbf 9051 ae3e
00000110: c632 043f 42e6 b0be 02d4 ab3e 7603 94be
00000120: e83e 0cbf 4790 88be d418 463e 6887 bcbd
00000130: 5c66 713e 3b40 90be e618 25be 8683 55be
00000140: 6ebd 3fbe 5da6 bebe 84e5 6cbe ccad f03e
00000150: a1bf ab3e 7faf 16bf 1fa0 f23e 7769 f63e
00000160: b66e 8d3d 8b62 f9be 2a17 ca3b 6eb9 b4be
00000170: c6ed 2d3d fd39 1cbe c736 23bf e104 463f
00000180: 51fa 2a3e 5cf0 6b3e 4771 efbd c11f 01bf
00000190: cebb 99be 735a 3a3e 92bc ab3d bf5f 823d
000001a0: 992b 5fbd 72cc 153f 1e09 8abc d237 babe
000001b0: 59d7 cb3e c595 4abd d81c d1be 5b6e 3b3f
000001c0: 2b10 e5be 50cc 95bd 8ace fc3d c36f adbe
000001d0: 174b a6bd ffaf b4bd 98f5 44bd 5fd0 853d
000001e0: f32d 3bbf 4ba1 8b3e 5eb0 473e 9ea4 14bf
000001f0: aa9e 4c3e 2aef 6a3e 1581 633e 7bca 81be
00000200: cfff 203e 8fbf 683e 9ef2 37bf 56cb 2a3e
00000210: b68c ffbe 9678 3ebd 72e4 d73e 2595 d0be
00000220: 0b36 413e 2f95 8f3e d4d1 d4be b852 12bd
00000230: 0834 8c3e b7ad e33d 4afa 31bf 3067 ce3d
0.008570308 0.35421273 -0.033748336 0.44780263 0.6184722 -0.07552677 0.0696572 -0.18307348
-0.19233537 0.65244794 0.012864817 0.14462179 -0.06568784 0.21804824 0.12031268 -0.342405
0.2595034 0.41682974 0.28329796 -0.06834967 -0.21800153 -0.007563349 0.45623857 0.2555501
-0.16413978 -0.67422 0.12073675 0.03845783 0.63947856 0.17229497 0.1318603 -0.007165839
-0.19031405 0.31988558 -0.08820242 -0.078904904 -0.03647126 0.46339098 -0.20696491 -0.7346646
0.11827562 0.030370735 -0.4384491 -0.121883646 0.14656161 -0.08695828 0.5800223 0.080745034
-0.30031177 -0.39908317 0.35398558 0.33166513 -0.3694152 0.17196892 0.26902005 -0.2452155
-0.25147325 -0.29854193 -0.41084743 -0.108242385 -0.48943883 0.010376923 -0.05776431 0.2786875
-1.1642501 0.11408801 -0.7420733 0.34046602 0.51639974 -0.34550673 0.33560187 -0.2890889
-0.5478349 -0.26672575 0.19345409 -0.09205514 0.23574203 -0.28174004 -0.16122779 -0.20850953
-0.18724605 -0.372363 -0.23134428 0.47007596 0.3354464 -0.58861536 0.47387788 0.48127338
0.06905882 -0.48707995 0.006167312 -0.35297722 0.042463087 -0.15256496 -0.6375546 0.77351195
0.1669705 0.23040909 -0.11691528 -0.5043908 -0.30026096 0.18198566 0.08385576 0.06365918
-0.054484937 0.58515084 -0.01685005 -0.36370713 0.39812735 -0.049459238 -0.4084232 0.73215264
-0.44738898 -0.0731436 0.12344082 -0.3387433 -0.08119791 -0.08822631 -0.04808578 0.06533884
-0.7311699 0.27271494 0.19500872 -0.58063686 0.199824 0.22942796 0.2221721 -0.25349793
0.15722583 0.22729324 -0.7185458 0.16679129 -0.4991204 -0.04650172 0.42166477 -0.40738788
0.18868272 0.28043506 -0.41566336 -0.035723418 0.27383447 0.11117118 -0.69522536 0.10078275

StatefulPartitionedCall/sequential/separable_conv2d/separable_conv2d/ReadVariableOp_1:0 f4 [8, 16, 1, 1]
00000000: 658e 0cbf 0f18 183e 6318 3cbe eb2d 223f
00000010: a1ab bebe 3e32 723f f038 e43d d5f9 16bf
00000020: 3c6e 5d3f 3f8a f7bd 856f 42be 37e0 84be
00000030: 97ac b4be 6382 be3d 8373 843e 6f64 5f3e
00000040: c618 d23d d37a 243e 0e55 56be 4238 253e
00000050: d05d f63e 5cad 073f 4f16 afbe 8c58 56bc
00000060: 8eee d1be a83c 723f 9d45 bc3e f493 213f
00000070: 33b9 f2be 50fc 44bf 71cf 50be ada7 293f
00000080: a9ed cfbe e224 0bbf ca00 c23d 6332 91be
00000090: 757a 58bf 6b4b 59bf aa56 bbbe 3e55 bebd
000000a0: a967 043c 6fe4 1bbf e3b4 32be 57e6 29be
000000b0: ae13 063f 50dd 563e ed50 88be d347 42bf
000000c0: e779 0a3f 08f8 43bf 84ba acbc 0128 3fbf
000000d0: ccd8 893e f6fd 1ebe 038e 45be 12e2 a9bf
000000e0: 8521 983e 09cb 123e 2b7c f83e ba29 60bf
000000f0: 4f49 f2be e86f a83e ab8c 533e 25e2 393e
00000100: 0b2b 91bd ac92 b93e 9bfb 313e eca4 2f3e
00000110: 955e c0be 31e7 373e a95d 00be 3341 993f
00000120: ba98 92be 2fdc cf3e 9585 3bbe 3a9f bbbd
00000130: 5fef 6d3f 24cf f8bc 2daa 3fbf b116 803d
00000140: 4226 123e e129 afbe 806a a53f 8075 9c3d
00000150: f79e dfbe c37b 07bf d7c6 a2bd 8103 65bd
00000160: d231 81be 1516 78bf d074 17bf 373e f13d
00000170: 7f9a ffbe 58f5 b7be a0f4 28be 81d7 05be
00000180: 9e3d 633e 2378 babe 9c15 0fbe 9e12 b1be
00000190: 7ec5 523e 9b26 3a3e 2891 7ebf 5d52 c23d
000001a0: dcc1 72bf 2653 69be d99a 17be 0106 aebe
000001b0: a668 73bc b59a 3c3f 223b 133f 3b20 573c
000001c0: 70ee febe 1f39 79be deb8 abbe 16a4 593e
000001d0: 183f 853e 1eeb e2bd 2d00 1a3f e0b7 933f
000001e0: ed0f c6be beed d6bd f463 61bf c639 b13e
000001f0: f79f 683e 6850 11bd e98f bfbd b647 123d
-0.54904777 0.14852928 -0.18368678 0.63351315 -0.37240317 0.94607913 0.111436725 -0.58974963
0.8649633 -0.12086915 -0.18987854 -0.25952312 -0.35287926 0.09302213 0.25869378 0.21815656
0.102586314 0.16062479 -0.20930883 0.16134742 0.48118448 0.529989 -0.34196708 -0.013082635
-0.41002315 0.94623804 0.3677186 0.63116384 -0.4740692 -0.769475 -0.20391633 0.6627148
-0.40611008 -0.54353154 0.09472807 -0.28358755 -0.84561855 -0.84880704 -0.36589557 -0.092936024
0.008081355 -0.60895437 -0.17451815 -0.16591774 0.5237378 0.20982862 -0.2662424 -0.75890845
0.5409226 -0.7655034 -0.021085031 -0.74670416 0.26923215 -0.15526566 -0.19292454 -1.3272116
0.29713073 0.14335264 0.48532233 -0.8756367 -0.47321555 0.32897878 0.2065913 0.18152674
-0.07088288 0.36244714 0.17381136 0.17152756 -0.3757216 0.17959286 -0.12535729 1.1973022
-0.28632146 0.40597674 -0.18312676 -0.091612294 0.92943376 -0.03037221 -0.7486904 0.06254328
0.14272407 -0.3421164 1.2923126 0.07639599 -0.43675968 -0.5292322 -0.07948082 -0.055911545
-0.25233322 -0.96908695 -0.59162617 0.11779445 -0.4992256 -0.3592937 -0.16499567 -0.1307049
0.22191474 -0.36419782 -0.13973087 -0.34584516 0.2058315 0.1817879 -0.9944024 0.09488366
-0.94827056 -0.22785625 -0.14805163 -0.33988956 -0.014856493 0.73673564 0.57512105 0.013130243
-0.49791288 -0.24338196 -0.3353948 0.21254 0.260247 -0.11080001 0.6015652 1.1540489
-0.38684025 -0.104945645 -0.8804314 0.3461439 0.22717272 -0.035477072 -0.093536206 0.03571292

StatefulPartitionedCall/sequential/dense_2/MatMul/ReadVariableOp:0 f4 [406, 3]
00000000: b056 aebf fd88 f23b 66de 2b3e 45e4 eb3d
00000010: cb92 da3e 51de 3cbd da0a 63bf bebf 4cbe
00000020: d71a 86bd c856 b5be 8f56 863d a61b 703c
00000030: e7ce 7dbe 765c b63e bc8a 50bb fe35 8a3d
00000040: e694 01bf bfa7 093d 96e2 be3f 66e7 183f
00000050: bac6 49bd 8ac8 733e 94af bc3e 6634 e0bb
00000060: f5ff 12bd a676 ddbe e4a2 8dbe 231c e4be
00000070: 8cf7 cb3c bdd3 823e 71f8 df3e 1c2b 6b3d
00000080: 1501 6e3e ea31 073e 4dd3 963e f4b8 573f
00000090: 10ce ca3e fe86 6e3d 8a91 6cbe 59f6 c43c
000000a0: d694 de3e 02a5 24be 126b a9bf 5804 3d3d
000000b0: 6abd d7bd 64d5 a73e d8e9 89bb 7733 2ebf
000000c0: f8c2 ed3e 59c1 babd 5154 21be 1ae5 ed3d
000000d0: 3575 ac3e 10f2 5e3e 22de a8bf 8c11 b83c
000000e0: 45c5 acbe 1b91 c43e e613 f13d 6293 c8be
000000f0: f579 01bf 9379 79bd b3c2 ee3e 88f2 c63e
00000100: 9ff5 8d3d 0163 86be cbb6 d63e 992f fcbd
00000110: 96a0 5f3e bce7 9e3e 6c62 e3bc 85d4 27bd
00000120: 4588 de3e 006a 843d c5de dc3d 6de4 843e
00000130: 949d 043f f7e1 3dbe a056 523e d7cd ef3e
00000140: d62e 103e 3b1c c1be fd02 c9bd 6992 e63e
00000150: 02c0 9abe d3ff c23e d289 0dbe 5d57 e53d
00000160: 5a1e af3f 0c7e 4f3e 4563 773d a3a7 c93e
00000170: 2521 6ebe 1d67 ed3e 81a6 813d ee3b 1c3e
00000180: 7dd0 cabe 7fae 06be 5027 c73e a7b2 c73f
00000190: c216 86bd 39b5 ccbd fc14 4bbe 7c23 febe
000001a0: 7d91 b43e 16ed 8cbe af65 9b3e 5c19 25be
000001b0: d3bb 93bf 10b1 bd3c 6866 23bb 391c 533f
000001c0: 624c 50ba 87ef e03d bdd8 113d 59e4 653f
000001d0: 782d bf3d d67a debe 8b9c 9e3d 2d4e 343d
000001e0: 000a dd3e dca9 e23d 452a 41be cd95 b23e
000001f0: d2ac a23e 34ee fd3e 9a95 e73d 0367 a9be
00000200: b59c a1be 8cec 8bbe a447 6dbe 0817 c03e
00000210: 4a62 fc3e 2087 14be fe1c 663e d41c d8be
00000220: 5b46 2cbe 4821 c63e 968e 18bf 6212 e4bf
00000230: 043f 1fbe 8bea 7a3e 110e d73e 5b42 463d
00000240: c48b ca3e 7261 8abc 4c0c 093e 462b 3a3f
00000250: a5cc 0f3e 2a03 0ebe f1a8 3c3e 3678 f53e
00000260: 6141 f23e 20d1 2d3e 1119 94be b3de 6ebf
00000270: e722 e9be fb6c 02be 08e1 923e 7fae 913f
00000280: f9ae 0e3e b7b0 84be 4d3f b9bf f97f 443d
00000290: 84e9 2dbd cbe4 853e 6964 94be e7bb ebbd
000002a0: 58cc 193d 26df df3f da4f c73e 26de 96bd
000002b0: ac82 95be 120e 1ebf 9520 1d3d df64 b7be
000002c0: 51a5 c43c af14 233d 6c01 b83e 6426 1d3f
000002d0: 1cd9 573e ae9e d13e b390 fa3e f1ed c5bd
000002e0: 69ec c5be cc7f 273e 15aa a2bd 284f 96be
000002f0: 772d 2ebf 0dca 04bf 639c 31bd 94ca 9cbe
00000300: 39e3 acbe 3319 b23a c8b1 373f 1985 a0bd
00000310: fe5e 94be b943 69bf e831 5fbd 7f11 db3e
00000320: 6ac4 b4be 41bf 3abd 13d7 163f 1eab 5cbc
00000330: 7cf6 8ebe 8bbc 5c3e 8fd0 2ebe 3613 f43d
00000340: db92 043f 7405 c43d bdb9 ac3d 0124 e33e
00000350: 13c9 e73d f8c5 e7bf 37ce bb3c 6aa7 ac3d
00000360: 3c4e fd3c b7da febe ac45 89be ab8f 943d
00000370: 4021 c6be 7a60 243e c9ae c43e 353c d0bd
00000380: 65fe bebe ef7f cf3e b8fd 6e3a 0459 91be
00000390: 99bb dcbe 0039 903d 4b7a babe 5753 adbf
000003a0: bc53 64bd f132 c0bd bbda 75ba b35a 843f
000003b0: dec1 903e 7d30 3dbe c8cc 02bf c3c8 1f3d
000003c0: edda 393e b6fd 08bf a38c e43e 51af 16be
000003d0: bea2 c43e c678 3c3f 33e5 3fbd a94e c13f
000003e0: 6ec5 ab3e 13d8 3d3e edcf d8be ff4b 333e
000003f0: d0e6 53be a8d4 2e3e 2af7 5f3f b1af a03d
-1.3620205 0.007401584 0.16784057 0.11518148 0.4269012 -0.046110455 -0.88688433 -0.19995019
-0.06548088 -0.3541777 0.065594785 0.014655029 -0.24785958 0.35617417 -0.0031820973 0.067485794
-0.50617826 0.03360724 1.4912899 0.59728086 -0.049261786 0.23806968 0.36852705 -0.006842184
-0.03588863 -0.43254584 -0.27663338 -0.44552717 0.024898313 0.25552168 0.43744233 0.05741416
0.232426 0.13202634 0.29458085 0.8426659 0.39610338 0.058234207 -0.23102394 0.024043249
0.43472928 -0.1607857 -1.32358 0.04614672 -0.10534175 0.32779992 -0.0042087846 -0.6804728
0.46437812 -0.091189094 -0.1575482 0.11615963 0.33683172 0.21772027 -1.319279 0.022469305
-0.33744255 0.38391957 0.117713735 -0.39174944 -0.50576717 -0.060906958 0.4663292 0.38856912
0.06931614 -0.2624741 0.41936335 -0.12313766 0.21838602 0.31036174 -0.027756892 -0.04097416
0.4346334 0.064655304 0.107846774 0.25955525 0.51802945 -0.1854323 0.20540857 0.4683673
0.14080366 -0.3771685 -0.09815023 0.45033577 -0.30224615 0.38085803 -0.13822106 0.11198304
1.3681138 0.20262927 0.060397405 0.3938571 -0.23254831 0.46367732 0.06330586 0.15257236
-0.3961219 -0.13152502 0.3889718 1.5601395 -0.065473095 -0.09995503 -0.19832224 -0.49636447
0.3526725 -0.27524632 0.30351016 -0.16122955 -1.1541694 0.023155719 -0.0024932865 0.8246494
-0.0007945952 0.10983186 0.03560709 0.89801556 0.09334844 -0.4345309 0.07744702 0.044019867
0.43171692 0.11067554 -0.18863781 0.34879914 0.31772476 0.49595797 0.11307831 -0.33086404
-0.3156487 -0.27328908 -0.2317186 0.3751757 0.4929374 -0.14504671 0.22471997 -0.42209494
-0.16823713 0.38697267 -0.5959257 -1.781811 -0.15551382 0.24503534 0.4200292 0.048403125
0.39559758 -0.016892169 0.13383597 0.7272228 0.1404291 -0.13868394 0.18423821 0.47943276
0.47315505 0.16974306 -0.28925374 -0.9330856 -0.4553444 -0.12736885 0.2868731 1.1381377
0.13933934 -0.25916073 -1.4472443 0.047973607 -0.042459026 0.26151118 -0.28982857 -0.11510449
0.037548393 1.7489974 0.3892811 -0.0736659 -0.29201257 -0.6174022 0.03836115 -0.35819146
0.02400461 0.039814647 0.35938585 0.61386704 0.21078914 0.40941375 0.48938522 -0.09664524
-0.3865693 0.16357344 -0.07942597 -0.29357266 -0.68038124 -0.51870805 -0.043362033 -0.30623305
-0.33767107 0.0013587832 0.7175565 -0.07837886 -0.28978723 -0.9111896 -0.054490954 0.42786786
-0.35306102 -0.04559255 0.5892193 -0.013468532 -0.27922428 0.21556298 -0.17071746 0.11917727
0.51786584 0.095713526 0.08433864 0.44363406 0.11317649 -1.810729 0.02292548 0.08430369
0.030921094 -0.4977624 -0.26810968 0.07253965 -0.38697243 0.16052428 0.384146 -0.101677336
-0.37303463 0.40527293 0.00091167865 -0.28388226 -0.43111876 0.07042122 -0.36421427 -1.3541058
-0.055743918 -0.09384716 -0.00093786017 1.0340179 0.2827291 -0.18475528 -0.5109372 0.03900982
0.1814992 -0.5351213 0.44638547 -0.14715315 0.38405412 0.73621786 -0.04684944 1.510213
0.33549064 0.18539457 -0.42346135 0.17509459 -0.20693517 0.1707331 0.8748652 0.078460105

StatefulPartitionedCall/sequential/dense_2/BiasAdd/ReadVariableOp:0 f4 [3]
00000000: 2a46 923a c986 ed3a 927a afba
0.0011159827 0.0018121834 -0.0013387969

StatefulPartitionedCall/sequential/dense_1/MatMul/ReadVariableOp:0 f4 [62, 406]
00000000: 7f37 97be 16a2 d7bc 7548 c5bd 8921 313d
00000010: 6ff6 88bd a6a9 18bd 7790 2bbf 0c42 a83c
00000020: ebed 7a3e c6b1 73bd 4b30 ccbc 140c 43be
00000030: 2685 d23e 76ae ab3e 3d42 bbbe 628a db3e
00000040: 73f8 ad3e c9e3 9a3e 241f 56be 2f5c 583e
00000050: a634 d43c fab3 eb3d f816 9b3e 42ac 61be
00000060: 1f61 0cbf 9fae 81be 976a e1bd d0de d2be
00000070: 1c4e 84be 8454 b9be ecd7 3bbe 40eb bcbd
00000080: 8a99 c83e 595d 973e 4418 973e 08f3 95be
00000090: 7417 92be 4abe 883e fb93 393d 09b2 1fbf
000000a0: 83f3 a33e cafc a03d 2d9b 94bc 374c 0a3d
000000b0: f36d 743e 6001 75be 5b2b 09be a970 833d
000000c0: 5013 5c3d 1e04 42be 20c4 52be 70a2 28be
000000d0: fcdf 923d 4a92 a63d 8dd9 cebd 815b 073f
000000e0: 152c 3b3c 460f 3ebe 07a2 863d 9765 aebd
000000f0: 1a61 a43c d688 1fbe d51d 87be f5c8 303e
00000100: a56e 5b3e 60e5 9d3e 20a5 983e 985f b73e
00000110: b6b2 713b 679f d2bd 217f ba3c 587e 0bbf
00000120: 5c69 b5bc 6029 48be cf3b 5d3e fd52 563e
00000130: 40e5 bcbe d9c4 0bbf 8483 23be 2d1e 69bd
00000140: 809f a03e 229d c1be 5212 02be b135 05bd
00000150: d2c1 f4bd 2d6d 4abe 749d 7b3e 6b1c 3b3f
00000160: e5ff c8be 9ef7 7fbe 207b e33e 2ed2 f43e
00000170: 1553 503e ebe8 253f df61 e2ba cfe0 45be
00000180: b3b9 c83e e6c7 1f3e b3ee 583e 6e4d 283e
00000190: 6ed0 9a3e c659 82be 7629 103e 4d99 58bc
000001a0: ef48 68be c8ff 413e 0b99 37be 0417 04bd
000001b0: fb2b 92be a338 4dbd 6b20 413d bb4b b63d
000001c0: 722e afbe 951d d43e c22a b03c a681 b6be
000001d0: 4f97 b73d 9cbc df3e c9b1 b4be 5c8f 78bd
000001e0: 8cdb efbd 5ecc 43be a444 90be fcc7 72bd
000001f0: ecc2 33bd e1ff 0cbf 3ff2 06be 3d80 d03c
00000200: 6fd1 013f 61db b63d 2227 a93d af9a c3bd
00000210: 94b4 11be d59b 98be 48ac a03d e571 a73d
00000220: 9554 013e 264e a5bc 51a3 cd3e defa d6bd
00000230: 8df6 d13e 912e d73e 0914 023e 4c13 d63e
00000240: c47d e6be 0ad7 d3be 77e1 6a3c 5512 4fbe
00000250: 0012 8bbd 142d a8bd 5388 2c3c 77d2 e33e
00000260: 27f7 80bd 9e32 74bd 0f3d 8c3e ac04 b0bd
00000270: 7d38 1ebe 9b37 3ebe 567c 4b3e b81f 833e
00000280: eeed 9bbe 463a 693e 8da9 753e c952 ed3c
00000290: 8a75 e0be 867c 563d d1d9 66be 6f6c 7c3e
000002a0: 0d68 183d 368d 9f3d 46df e1bd 6585 e13d
000002b0: 11ed f5be 3d34 083f 8999 8fbe ad5b 90be
000002c0: 13b2 6cbe 2673 d6be 21c4 383e a0a6 013e
000002d0: 07f7 5d3d db4c 273e 7457 0ebd 5abd d6be
000002e0: acd2 38be ce3f 72bc 72f0 1c3e 2514 02be
000002f0: f6b9 cabe a7e7 b5be 3721 aa3e ac4a b63d
00000300: 9073 8a3e c062 80bc 4150 353f f70a 09be
00000310: acae ecbe 8125 333e b783 d3be bb69 4cbe
00000320: fc25 8cbe 8d29 09bf 578a f7bd e71e a4be
00000330: c554 893c cdbe d63e 1f2e fbbd 9d64 413f
00000340: 358f 653e 34f0 6dbd 89ce 0a3e 6e29 29bd
00000350: daf6 99be 56a3 26be 79b6 9ebe 5e17 88bb
00000360: ae1d 1cbf 1665 213f 4196 c53e 747a 9b3e
00000370: 447e 1dbe 048e 98be 1cab 25bf 8026 543d
00000380: 1004 1bbe e4a5 483d 0680 63bc a826 483e
00000390: 615e 3c3e d03b a23e 5293 0fbe 2477 a6be
000003a0: b85f 023e 42b9 4f3d 382f dabe 86fe babe
000003b0: 4054 203f 8a68 27bf 45e0 f7be ecd3 c6be
000003c0: f916 b33d e1d0 de3e 45c1 3ebc b046 8f3d
000003d0: 3806 683e a75c a0be e402 c6be 9a64 94be
000003e0: 16e6 223e 64dd 533e abf6 a7bd b15b 47be
000003f0: a0fc e6be 56d4 1abe bb4e bc3d 80a3 223e
-0.29534528 -0.026322406 -0.09632961 0.043244872 -0.066876285 -0.037271164 -0.6701731 0.020539306
0.24504821 -0.05949571 -0.024925372 -0.19047576 0.4111721 0.3353154 -0.36573973 0.42879015
0.33978614 0.3025191 -0.20910317 0.21128915 0.025904011 0.11508937 0.3029096 -0.22038367
-0.54835695 -0.25328538 -0.110066585 -0.41185617 -0.25840843 -0.36197293 -0.18344086 -0.09224558
0.3917964 0.29563406 0.295107 -0.2928698 -0.28533518 0.2670768 0.04530714 -0.62381035
0.32021722 0.07860716 -0.0181404 0.03376409 0.23870067 -0.23926306 -0.13395445 0.064179726
0.053729355 -0.18946883 -0.20582628 -0.16468215 0.07171628 0.08133371 -0.10100088 0.52874
0.011424084 -0.18560514 0.06573873 -0.085154705 0.020065833 -0.15579543 -0.26389948 0.17264159
0.21428926 0.30839062 0.2981348 0.3581512 0.0036880202 -0.1028431 0.022765698 -0.5448966
-0.022144966 -0.19547033 0.21604846 0.20930095 -0.36893654 -0.5459724 -0.15968138 -0.056913543
0.3137169 -0.37815195 -0.12702301 -0.032521907 -0.11951031 -0.1976821 0.24571782 0.7309024
-0.39257732 -0.24996802 0.44429874 0.47816604 0.20344193 0.6480853 -0.00172716 -0.19324039
0.39204177 0.15603599 0.21184807 0.16435787 0.30237144 -0.25459117 0.14078316 -0.0132201435
-0.22684072 0.18945229 -0.17929475 -0.032248512 -0.2854918 -0.05010284 0.047150057 0.08901163
-0.34215122 0.4142882 0.021504764 -0.3564579 0.08964407 0.43698585 -0.3529189 -0.060683593
-0.11711797 -0.19120929 -0.2817737 -0.05927275 -0.043887064 -0.5507794 -0.13178347 0.025451774
0.50710195 0.08928562 0.08259417 -0.09550988 -0.14229041 -0.2980639 0.0784536 0.081760205
0.12629922 -0.020178866 0.40163663 -0.10497068 0.41008416 0.42027715 0.12702955 0.41811597
-0.45017827 -0.41375 0.014335982 -0.20221837 -0.067905426 -0.08211723 0.010530549 0.4449651
-0.062971406 -0.059618585 0.27390334 -0.08594641 -0.15451236 -0.185759 0.19871649 0.25610137
-0.30454963 0.22776136 0.2399046 0.02897014 -0.43839675 0.05236485 -0.22544028 0.24650739
0.037208606 0.07790606 -0.11028914 0.11011771 -0.4803243 0.5320471 -0.28046826 -0.28194943
-0.23114805 -0.41884726 0.18043567 0.12661219 0.05419066 0.16337912 -0.03475137 -0.4194134
-0.18049115 -0.01478572 0.15326098 -0.12702997 -0.39595002 -0.355283 0.33228466 0.08900961
0.27041292 -0.015672088 0.7082558 -0.13383089 -0.46227014 0.17494775 -0.41311428 -0.19962208
-0.2737273 -0.53579026 -0.12086933 -0.32054827 0.016764054 0.41942444 -0.12264656 0.7554415
0.2241791 -0.058090404 0.1355535 -0.041299276 -0.30071145 -0.16273245 -0.3099859 -0.004153176
-0.6098279 0.6304487 0.38591197 0.30366862 -0.15380198 -0.2979585 -0.6471422 0.05179453
-0.15138268 0.04898633 -0.013885504 0.19545996 0.18395378 0.31686258 -0.14021042 -0.32512772
0.12731826 0.050713785 -0.4261415 -0.3652231 0.62628555 -0.6539389 -0.48413292 -0.3883356
0.08744616 0.43518737 -0.011642759 0.069959044 0.22658622 -0.31320688 -0.3867408 -0.28983003
0.15908083 0.20689923 -0.08201345 -0.19468571 -0.45114613 -0.15120062 0.09194704 0.15882683

StatefulPartitionedCall/sequential/dense_1/BiasAdd/ReadVariableOp:0 f4 [406]
00000000: 57aa e437 4da7 9c38 0005 6bb8 93b9 79b8
00000010: 41a8 2ab5 22ed a437 04bd 6036 b05e 66b6
00000020: 71ee 51b8 8b14 21b8 97a0 a438 de4b 0cb8
00000030: 50c2 ceb7 bba5 8eb7 4073 c235 90cf bab7
00000040: 46ef ffb7 b0af ff37 1419 b1b6 7e77 cc37
00000050: 988d 88b7 cb64 1d39 9bf6 8037 4704 70b7
00000060: 89d5 8f37 e288 a7b8 0dbe f137 0ada eeb7
00000070: ba48 b5b7 543d 6cb7 b8da 07b7 f43c 3237
00000080: 81c0 7cb8 93f7 62b7 b7a8 9039 490c 7337
00000090: 889c ea36 2ec9 a9b8 77d9 2a38 a78e 23b8
000000a0: a6f6 90b8 a43f 8338 6a5e 8cb8 14fb aeb8
000000b0: 1861 adb6 1b7d 5b38 5fa5 3438 4ede 9637
000000c0: 6385 f8b8 d179 0bb9 0955 dab7 5558 adb7
000000d0: f7f6 24b8 2e29 4938 354f 4bb8 808f 90b8
000000e0: 98ac e637 b8e6 e8b7 6c0e d0b7 160d 1d37
000000f0: 78e0 d737 0021 0eb9 0157 8cb6 7420 3237
00000100: 2959 8337 a549 9038 f339 8e38 4042 3cb8
00000110: f80a 6537 e864 c438 3e45 9ab7 7c1f 6537
00000120: 6726 36b7 a1ee 8937 6831 4f38 93de 9438
00000130: e74c 49b8 02d5 2db7 da7c 7f38 72fa 4138
00000140: 8fb2 9737 8f40 5738 a3e0 f0b5 e284 8838
00000150: 0cca 59b8 edb7 0838 f548 9537 8d4a c6b8
00000160: 6534 3938 585d 28b8 97a2 2a37 cde2 2737
00000170: aff4 2037 916a 9938 f3e4 8cb7 de23 bb37
00000180: 3ecc f138 ee26 4a37 f16c bf36 f11d 86b8
00000190: 36cb a038 fff1 eab6 66ea f8b7 c425 e537
000001a0: 5b08 5bb7 bdff 96b7 00c8 9937 2830 4ab8
000001b0: 77ce 9237 3fae 80b7 2db6 4db7 18e6 d338
000001c0: e8fc 8bb7 8ecf 0338 137b 5636 d63e 45b8
000001d0: b8fd 0ab8 62c2 2936 0996 8bb8 0455 5db4
000001e0: cbc2 2eb4 6f2b 8db8 d282 2037 f6e4 b035
000001f0: c275 2437 270f 7138 152b 2db9 3b14 d036
00000200: ddaa 3c37 a11b 0ab5 10b5 7e36 5b8a 9cb6
00000210: 6f2a 8bb7 8438 3839 2cb1 1939 f250 7737
00000220: 5904 b9b7 e861 5538 a683 38b6 9404 0339
00000230: 13a0 88b7 0c77 7cb7 98ea edb7 456d 9038
00000240: b6e5 15b6 c70b cc38 a6a5 55b8 aad5 9635
00000250: 9f1b feb7 61fb eb38 e729 87b8 73ab 60b7
00000260: d603 c1b7 b7b8 0d38 980c b637 01fe af37
00000270: 6c14 b0b7 0759 c0b7 8fa5 2db8 b564 3b38
00000280: 1032 b937 8037 1239 2257 2437 a08d 00b8
00000290: 3333 4cb8 89e6 fab6 2482 6037 11eb f938
000002a0: a5c2 6838 be68 0f37 c390 7037 b710 40b8
000002b0: 67ea c937 84cf 1f37 b7c3 4b38 a57d 79b8
000002c0: 4a40 f538 4f24 8438 9230 a336 8f16 1538
000002d0: 16ff 51b8 5fb5 09b9 a343 63b7 f990 2ab8
000002e0: c6c4 2fb8 5faf b2b8 5e57 e3b7 772c 30b8
000002f0: 6d0c c7b8 0671 c8b8 dcb7 bf37 418e 01b6
00000300: de62 a537 c1e3 b438 4fe8 e6b8 683f 22b8
00000310: 7ffb 2838 6099 0c39 afc5 c7b8 155e b137
00000320: fd3c 96b7 9f1e 1538 f181 ee37 0c56 3e36
00000330: 0f74 c7b7 83c4 d6b7 feac 6536 4b16 4eb8
00000340: 2e45 adb7 c92e a9b8 3a14 1bb8 3bd1 0238
00000350: baec 9238 4eab adb7 3739 0bb9 5ca0 02b8
00000360: 4227 07b8 2fae 1ab8 ad8c 0ab7 e1cc 2a37
00000370: c30e 91b7 0c21 7c36 a78c 91b8 d99a e9b7
00000380: 72d3 3b38 85b3 6038 ef40 4739 b765 15b7
00000390: 4bdc 13b8 002b e5b7 1f69 6bb8 967e 3cb7
000003a0: 2d97 5138 6995 ffb7 88dc 8e38 dab9 89b7
000003b0: 0fc2 69b7 1240 1937 a873 e737 6bee 12b8
000003c0: 3bff fc38 dc9e 7a38 4105 8638 8eca 4fb8
000003d0: 8b7b b5b8 c204 afb7 68cf 0237 881c fe37
000003e0: 5df3 fcb6 6e7b 3bb8 9f6c 26b7 f7a2 24b8
000003f0: 3217 cc38 c638 6237 1c93 a0b7 44fe ca37
2.7259039e-05 7.469822e-05 -5.6033023e-05 -5.9539056e-05 -6.3574777e-07 1.9660747e-05 3.3488623e-06 -3.4327786e-06
-5.005155e-05 -3.8404523e-05 7.8500416e-05 -3.3449258e-05 -2.4647597e-05 -1.7004893e-05 1.4487669e-06 -2.2269582e-05
-3.050979e-05 3.048018e-05 -5.2779305e-06 2.4374338e-05 -1.6278398e-05 0.00015010235 1.5373624e-05 -1.4306111e-05
1.7146363e-05 -7.988677e-05 2.8817938e-05 -2.8473343e-05 -2.1610747e-05 -1.4080975e-05 -8.0975515e-06 1.06238185e-05
-6.0260765e-05 -1.3528293e-05 0.00027591523 1.4486789e-05 6.991966e-06 -8.0960206e-05 4.073369e-05 -3.8995084e-05
-6.912397e-05 6.258421e-05 -6.693306e-05 -8.3437335e-05 -5.167105e-06 5.2330182e-05 4.3069358e-05 1.7984912e-05
-0.00011850407 -0.00013301453 -2.6027223e-05 -2.066434e-05 -3.933065e-05 4.7960486e-05 -4.847274e-05 -6.893184e-05
2.7498507e-05 -2.7763992e-05 -2.4802248e-05 9.360976e-06 2.5734524e-05 -0.00013554469 -4.1824537e-06 1.0617183e-05
1.5657935e-05 6.8801724e-05 6.7818815e-05 -4.4884393e-05 1.36520175e-05 9.3648036e-05 -1.8390474e-05 1.3656794e-05
-1.0856987e-05 1.6442793e-05 4.939866e-05 7.0986476e-05 -4.7993755e-05 -1.0361198e-05 6.0913015e-05 4.624803e-05
1.808375e-05 5.132012e-05 -1.7946771e-06 6.509737e-05 -5.1925002e-05 3.259622e-05 1.7796157e-05 -9.455262e-05
4.4156233e-05 -4.0141254e-05 1.01706455e-05 1.0006782e-05 9.593713e-06 7.315458e-05 -1.6795913e-05 2.230884e-05
0.000115298186 1.2049202e-05 5.704926e-06 -6.395195e-05 7.6672455e-05 -7.0019155e-06 -2.9673054e-05 2.7316513e-05
-1.3055363e-05 -1.800048e-05 1.8332154e-05 -4.8205402e-05 1.7500699e-05 -1.5339929e-05 -1.2261368e-05 0.00010104122
-1.668786e-05 3.1426134e-05 3.1960124e-06 -4.702698e-05 -3.3138058e-05 2.5296108e-06 -6.655983e-05 -2.0613157e-07
-1.6275878e-07 -6.731494e-05 9.567202e-06 1.3179658e-06 9.802579e-06 5.747299e-05 -0.00016514615 6.201238e-06
1.1245455e-05 -5.144921e-07 3.7954342e-06 -4.665269e-06 -1.6589851e-05 0.00017568661 0.00014657219 1.4741194e-05
-2.2055743e-05 5.087434e-05 -2.7494766e-06 0.00012494839 -1.6287004e-05 -1.5048088e-05 -2.8361843e-05 6.886808e-05
-2.233644e-06 9.729672e-05 -5.093743e-05 1.1238055e-06 -3.0292022e-05 0.00011252496 -6.4451066e-05 -1.3391359e-05
-2.300918e-05 3.378905e-05 2.1701955e-05 2.0979905e-05 -2.0990345e-05 -2.292964e-05 -4.1400603e-05 4.4678065e-05
2.207703e-05 0.0001394432 9.795449e-06 -3.0649477e-05 -4.8685073e-05 -7.4774184e-06 1.3381741e-05 0.0001191703
5.5494387e-05 8.547851e-06 1.433882e-05 -4.5791934e-05 2.407022e-05 9.5254545e-06 4.8581245e-05 -5.948324e-05
0.00011694485 6.3010135e-05 4.863433e-06 3.5545378e-05 -5.006705e-05 -0.00013132904 -1.3546002e-05 -4.0666175e-05
-4.190651e-05 -8.520367e-05 -2.7101192e-05 -4.200308e-05 -9.491374e-05 -9.5577954e-05 2.285459e-05 -1.93053e-06
1.9715571e-05 8.625491e-05 -0.000110105255 -3.868286e-05 4.0288545e-05 0.00013408577 -9.525881e-05 2.1143855e-05
-1.7909793e-05 3.5552886e-05 2.843232e-05 2.8362292e-06 -2.3776693e-05 -2.5602296e-05 3.4224354e-06 -4.913499e-05
-2.0655421e-05 -8.0672624e-05 -3.6973717e-05 3.1189276e-05 7.005916e-05 -2.0702977e-05 -0.00013277387 -3.114376e-05
-3.222307e-05 -3.6878682e-05 -8.258195e-06 1.0180492e-05 -1.7292221e-05 3.7570162e-06 -6.940337e-05 -2.7847871e-05
4.4781198e-05 5.3572952e-05 0.00019002309 -8.904774e-06 -3.5252695e-05 -2.731895e-05 -5.6126268e-05 -1.1235146e-05
4.9970276e-05 -3.0467943e-05 6.812165e-05 -1.6418217e-05 -1.3933065e-05 9.134428e-06 2.7591203e-05 -3.5031157e-05
0.00012063837 5.9752594e-05 6.3905965e-05 -4.954129e-05 -8.653764e-05 -2.0863841e-05 7.796894e-06 3.0292445e-05
-7.5385165e-06 -4.4699227e-05 -9.919661e-06 -3.925242e-05 9.7317985e-05 1.3483868e-05 -1.914199e-05 2.4198678e-05

StatefulPartitionedCall/sequential/dense/MatMul/ReadVariableOp:0 f4 [256, 62]
00000000: 7815 eabe 2819 00bc 8137 2dbf 3d24 d53c
00000010: be64 b0bd 5385 753e eafe cfbd 1334 d4bb
00000020: 415a 40ba 8dd0 503e 287f 78bf fa85 cc3e
00000030: 53d3 ef3c 9e7c 9f3d c271 09bf d9fe 323e
00000040: d104 0a3f 3d13 46be fe5f 06be e46f e7bd
00000050: d94b c73e 07c4 3dbd baf6 b6be 056c 173e
00000060: edaf 8e3e d69a 893e 4979 b7be 318c 013e
00000070: a19f cc3e 6d60 5bbe e9fa 6dbe 8f20 093f
00000080: 4059 0c3d d200 b9bb 6c3d b03e 1f3a a43e
00000090: 7cac f4be f642 b3be f8ce 23bd fc1c 4a3e
000000a0: f718 44bd 3994 093e a6db c03e 0b3f 0a3e
000000b0: 8710 393e bff1 9ebe 372c 3bbc b89c d5bd
000000c0: 97de aabe 3058 6bbe 13c7 103d 5269 18bd
000000d0: 377b 2c3e 716e d63d dd5c 523e cc25 63be
000000e0: 215a cc3e 5495 933e c816 7eba b24a 1d3f
000000f0: 45b8 29be f35a 12bf cfb9 70be 1057 96bc
00000100: e8ad 0b3e 89c9 cbbe 54ed 2d3d 06bd 013f
00000110: 9a4c 52be 3422 eabd 5b48 16bf b549 053f
00000120: 806c 9bb9 e2b8 71bd a7a8 80bb 7fce c8bd
00000130: fd92 05bd 6cb9 113f 8242 253d ad2a 6ebe
00000140: cdc0 013e 3574 e6be feb0 b13e 46cd 22bf
00000150: 3b86 c6be 29b4 273e 0789 99be d051 86bc
00000160: 9626 89be 1ce7 f83e e91c 253e a426 92bd
00000170: 8039 233f f59a 453e e351 8bbd 5bc8 7b3e
00000180: 7894 013f b554 1f3e 67f9 81bd ca9e d6bd
00000190: 88e7 22be 8178 e43d 7814 a63e e88e d73e
000001a0: 03cf 99be 21ee 503d a8e6 d73d 4e27 92be
000001b0: c911 9bbe 8a08 d0be d1d8 a1bc 0adf f7be
000001c0: 0dd1 ceba 13ab a33d 81b9 b7bd 7a9d c63e
000001d0: a56a ee3d d0bd d63d f8dc 11be ed69 bf3e
000001e0: 550e e6be 5f07 5f3e 50cf acbe b15d 803c
000001f0: 8d78 f7bd 404d 143e d954 093e 7e5c 4dbe
00000200: e334 c8be b988 033e 754d b0be 0f49 21bd
00000210: dd7b 6cbe de43 94bd 482c 643e 2126 7c3e
00000220: fafa e6be 4025 c6be 7fde bd3e ccb6 61be
00000230: b27e f73d 92af 23be 5bff 863d b1fc a73d
00000240: 66ec 85be ed3d 673e 2ffb 3e3e 335c 40be
00000250: 19ed eebe fe8b b53e 9177 a43c 0115 cfbd
00000260: 282b 123f d438 b0bd e64f 34bc 17e6 ea3e
00000270: f4c3 c03c 21e0 733c 3e2f 06bf 0d31 123f
00000280: d456 043e 7877 b03b 5e50 65be f2fb a3be
00000290: 38ca 123d ae9e ac3d d780 a23e 3e16 a6be
000002a0: d529 8ebd 46ae 3ebf f815 013e 8432 893d
000002b0: a455 11bf 85a0 2d3e cb64 043f 12ca 03bf
000002c0: 0bf9 54bd 853c 083f 0ef8 cebc 140f 5bbe
000002d0: 889c 093e 7e9f c3bd 93b7 d13b 22bc aebd
000002e0: 8a52 503c 7055 51bd 77c8 083e 55c4 193e
000002f0: c863 953e 3597 e0be 47da cdbe dd1b 8abe
00000300: 10c3 6fbe b567 b43d f8ff 703d 32b6 103f
00000310: 2cb7 66be 23b9 f43d 94c8 19be 9643 bfbe
00000320: 0512 91bd e838 d93d 832f 183e 4a14 35be
00000330: 6461 5a3e 20d5 ccbe 4834 093f 61d8 56be
00000340: 6d05 2bbf bd70 b7be 18b0 36be a6eb e73d
00000350: 8095 03bf 7777 733e 1233 073f 0a2d c1be
00000360: 8ef3 003f e10d 93bc afd4 5f3d b312 a0be
00000370: 32d5 c63e 3442 c23d 7f2e babe 97eb 863e
00000380: 5a19 a8be 60ca 4e3e 3f92 b13e 03d0 783d
00000390: 78b4 b5bd 9c0d a43e ad4d f43c 2224 ebbe
000003a0: 0335 07bf c2e7 2ebd 9d98 64be 16e4 7dbe
000003b0: 7017 b53e 6ed5 cabd b0b6 953d aa03 343f
000003c0: 87a9 92be bb26 913d f8aa 9ebe 00e5 36be
000003d0: 751f 7abd 0240 7a3e 576e b1be 8699 23be
000003e0: 0e34 ef3d 1056 10bd 52ce 1cbf 7429 da3d
000003f0: c453 9d3b 0a64 fa3e 4e52 f8bd 9187 eb3e
-0.45719504 -0.007818498 -0.6766282 0.026018256 -0.08612965 0.2397664 -0.10156043 -0.0064759343
-0.00073376676 0.20392056 -0.97069025 0.39945966 0.029275572 0.07787441 -0.53689206 0.17480029
0.539136 -0.19343276 -0.13122556 -0.11300638 0.38925055 -0.046329524 -0.35735112 0.147873
0.27868596 0.26875943 -0.3583472 0.12651135 0.39965537 -0.21423502 -0.23240246 0.53565305
0.034264803 -0.0056458497 0.3442186 0.32075593 -0.47787845 -0.35012025 -0.039992303 0.19737619
-0.04787537 0.13435449 0.37667578 0.13500611 0.18072711 -0.31043813 -0.011424116 -0.10430282
-0.33372948 -0.2298286 0.035346102 -0.037209816 0.16843878 0.10470284 0.20543237 -0.22182387
0.39912513 0.28824866 -0.0009692726 0.614421 -0.165742 -0.5717003 -0.2350838 -0.018352062
0.13640559 -0.39802197 0.04246266 0.5067905 -0.20537034 -0.11432305 -0.58704156 0.52065593
-0.00029644743 -0.05901421 -0.003926355 -0.09805011 -0.032610882 0.56923556 0.04034663 -0.23258467
0.12671204 -0.45010534 0.34705347 -0.6359447 -0.38774285 0.1637732 -0.29987356 -0.016396433
-0.2678725 0.48613822 0.1612431 -0.07136276 0.63759613 0.19297393 -0.06802728 0.24588148
0.5061717 0.15559657 -0.06346398 -0.10479505 -0.15908635 0.11155797 0.3243749 0.42101216
-0.3004075 0.051008347 0.10542041 -0.28545612 -0.30287006 -0.40631515 -0.019756706 -0.48412353
-0.0015778855 0.07991614 -0.08970929 0.3879202 0.116414346 0.104854226 -0.14244449 0.37385502
-0.4493281 0.21780156 -0.33751917 0.015669676 -0.1208354 0.14482594 0.13411273 -0.20054814
-0.3910285 0.12845124 -0.34434095 -0.039376315 -0.23094125 -0.07239507 0.22282517 0.2462392
-0.45113355 -0.38700294 0.37083814 -0.22042388 0.12084712 -0.15984944 0.06591674 0.08202494
-0.2615692 0.22582217 0.18650506 -0.18785171 -0.46665266 0.35458368 0.020076545 -0.10111428
0.570971 -0.08604589 -0.011005377 0.4587867 0.023530938 0.014884979 -0.52415836 0.57106096
0.12923747 0.0053853355 -0.22393939 -0.32028157 0.035837382 0.08428703 0.31738922 -0.32438844
-0.069415726 -0.7448467 0.12606037 0.06699088 -0.567713 0.16955765 0.517163 -0.5148021
-0.05199532 0.53217345 -0.025264766 -0.2139247 0.13438618 -0.09551905 0.0064000576 -0.08531977
0.012714991 -0.05110687 0.13357721 0.15016301 0.2917769 -0.43865362 -0.40205595 -0.26974383
-0.23414254 0.08808843 0.05883786 0.5652801 -0.22530812 0.119493745 -0.1501792 -0.3735625
-0.07083515 0.10606557 0.14861874 -0.17683521 0.21326214 -0.4000635 0.535954 -0.2098098
-0.66805154 -0.358282 -0.17840612 0.11324243 -0.51399994 0.23776041 0.528123 -0.37729675
0.50371635 -0.017950954 0.05464619 -0.31264266 0.3883453 0.094852835 -0.363636 0.26351616
-0.32831842 0.20194387 0.3468189 0.06074525 -0.08872312 0.32041633 0.029822195 -0.45926005
-0.52815264 -0.04270149 -0.22323842 -0.24794039 0.35369444 -0.0990399 0.073102355 0.7031809
-0.28644964 0.070874654 -0.30989814 -0.17860794 -0.061065156 0.2443848 -0.34654495 -0.15976533
0.116798505 -0.035238326 -0.6125232 0.10652438 0.0048012454 0.4890445 -0.121250734 0.46001866

StatefulPartitionedCall/sequential/dense/BiasAdd/ReadVariableOp:0 f4 [62]
00000000: a8f2 3dbe aebb bf3d 25de 673e 8ce5 71be
00000010: e8b5 bbbe 6441 c0be e7a0 97bd 3054 8e3e
00000020: 19d6 5e3e 6eb6 a4bd 45b7 563d 0f87 4eba
00000030: 42ff 53bf 6b70 a13e 71b6 26be dbb0 a2be
00000040: 5c0d f9bd 98f1 6fbc da7c cabd 88e7 49bd
00000050: b17b 5f3e 8352 d23d 7819 db3d f159 75bd
00000060: 4f6c e9bb da56 1f3e 85f5 953d d749 88be
00000070: c203 693e dfa8 813c b9f7 83be 2ed2 883e
00000080: b252 943d 4151 edbd 1a1f 55be 9e13 b23e
00000090: a1b4 1ebe 2e69 86bd ec90 7cbe 209e f23e
000000a0: 811c 1a3e 3b22 133e 84ce 9b3d 896a 4c3d
000000b0: 565a 703d ff07 afbe 1b33 ac3c 688e 123e
000000c0: 16e9 20be 04da bf3e ab8d 443c 314e 973d
000000d0: 68e8 403d 91e5 073e f8d6 d2bd 71f7 97bc
000000e0: 6944 02bf 15ce c2bd 97ff 2bbd 2209 603c
000000f0: 33ff 8e3d fdb8 afbe
-0.18549597 0.09361969 0.22643335 -0.23622721 -0.3666222 -0.3754989 -0.074037366 0.27798605
0.2176136 -0.08042608 0.052420873 -0.00078784017 -0.8281137 0.3153108 -0.16280533 -0.31775555
-0.12160751 -0.014645003 -0.09887095 -0.04929307 0.21824528 0.10269644 0.10698217 -0.059900228
-0.007123507 0.15560475 0.0732222 -0.26618835 0.2275534 0.015827594 -0.25774935 0.26722854
0.072423354 -0.115877636 -0.20812646 0.34780592 -0.15498592 -0.0656303 -0.24664658 0.47386265
0.15049936 0.14368527 0.07607749 0.049906287 0.0586799 -0.34185788 0.021020463 0.14312136
-0.15713915 0.3747102 0.011996667 0.07387961 0.04709664 0.13271166 -0.10294908 -0.018550606
-0.50885636 -0.09511963 -0.041991796 0.013674052 0.06982269 -0.34320822

StatefulPartitionedCall/sequential/conv2d_1/Conv2D_weights_fused_bn f4 [16, 8, 5, 5]
00000000: cb5a 73bd 76c7 64bd 99cb 51bd 3f9a 21bd
00000010: b80f b6bd af5f c4bc e725 2d3d d584 673d
00000020: 7e95 903d 5a28 81bb 7492 86bd 9c30 dcbc
00000030: 2485 0b3d 3a22 483d 738b 583d 5052 58bd
00000040: e0f5 5fbd 8c13 a5bd 66c0 493c 6a08 2fbd
00000050: 428a 35bd ad00 133b c51c 93bd a8b4 9bbd
00000060: 5a84 05bd e5a5 c63c 9444 45bd 3a3a 31bd
00000070: 2a3c 8ebd cbd1 94bb abe7 a0bd 5c3b 22bd
00000080: f1b1 69bd b672 dd3c 9beb 05bd 6de9 82bd
00000090: 944f 673c b6fb f53d 7706 d3bb a78f 923d
000000a0: d2ef a0bc ef08 27bd 0453 2b3d afdf 12bc
000000b0: 532c 263d 5971 913b be93 843b 8b9e 5c3d
000000c0: ad71 973b fad4 e5bc fc27 e5bc 92eb 12bd
000000d0: a859 4ebd 379f cbba 4fa9 1ebd f31c a3bd
000000e0: bf6a 60bd 4ea0 273c 0a0a ed3b ac99 2b3d
000000f0: bbf8 c7bc b744 d03c 912a 77bc 7907 793d
00000100: 952d 203b 7666 b93c b4ba 4c3d 8849 b4bd
00000110: 60cc e43c 0491 a4bc d0ac aa3c 95bf 403d
00000120: 038b ae3c fd57 a7b9 6ba2 e2bc c0a0 26bc
00000130: bde2 423c 4ae0 d5ba 21b1 5ebd 0e3b 49bc
00000140: 29e3 c9bc efe2 253b 409c 84ba 2ca8 b7bd
00000150: 0fbe 83bd 249c 803d 5a6a 223d 0510 563d
00000160: dbad 0d3d 586c b8bd 22bf 6d3d a118 723d
00000170: 70b4 abbc 1929 e73c 9d3f 15bd 592a 15bd
00000180: 094b 80bc f445 993d 3f1a 19bd eecd d9bc
00000190: 16d9 debc e2ed 6dbc a31e 97bd 889a 83bc
000001a0: 71f3 46bc 0bcb 5abd 4988 c4bc 340d 0abd
000001b0: 9c4a f5bc 5932 9fbd 8ee2 183d 1c00 593d
000001c0: 570e 043d 2c35 1b3d c9de 3abc bcc1 fd3b
000001d0: e029 693d bc17 e8bc 32b4 373a 15d1 353d
000001e0: 8e7f edbc 17c9 cdbb aafe 98bb 66fb b7bc
000001f0: 45de b83a 92d7 93bd c1e6 2ebd 8b6e cd3c
00000200: 08d0 fd3c 2ed7 f7bc 9ee3 d0bd 4292 7cbd
00000210: 48ad 2a3d 059e 11bc 1809 7c3d 8f3e 4a3b
00000220: d78a 053b 010a b7bc 56f4 6c3d 8c23 42bd
00000230: 5268 95bc 0f6c fdba 6e7a 3bbd 6feb 343c
00000240: f037 45bc 14f5 eebc 36d4 b83c 31ec 8dbc
00000250: fdc5 01bd 6dd7 c0bc c327 bc3d 684b 5a3d
00000260: da9c 313c a88e e8bb ce19 7a3b 42ab 10bd
00000270: c296 66bd bf20 4abd 9665 bbbd eb04 a5bd
00000280: 74a5 c43b f531 4d3c 2d79 83b9 0523 8c3d
00000290: 011d 54bc d6d8 323c 90ed 7a3d 1ff8 54bc
000002a0: c8d8 d63c c32a 3d3c 5608 0bbc 0e14 a93d
000002b0: bb39 823d d20a 803d 2e8d babc ff97 29bd
000002c0: 48c8 1bbd 808b 1d3c 96db a8bc 2589 a6bc
000002d0: e726 69bc acd3 d43d 40b1 1a3d 6e5c 33bd
000002e0: 3e72 91bd e56b ea3c d9f0 e93b b73e 303d
000002f0: 0c13 083d a005 cdbd 6edb 33bd b436 993b
00000300: f6db 23bd 68dc 7e3c c813 11bd 4e96 41bd
00000310: f05d 6a3d a677 b7bc 6e4c 1b3d 78fd c13c
00000320: 3643 133b c061 913d eabf 463d 76de 4d3c
00000330: a4b1 2fbc b61e 39bd 902d 5bbd c434 38bd
00000340: 3457 19bd 88b9 323c 129e 86bd e29d 49bc
00000350: 6560 a1bb 3cb0 9bbd c4f2 2c3a a8ad 73bd
00000360: 1ce1 03be 1615 8dbd de4c 0fbd 34d8 80bc
00000370: 52a5 943d 4fe4 f53d 6205 103d dd8d a0bc
00000380: a1a5 22bd 07fb d0bb 55a8 96bc 5964 2a3d
00000390: b7bd aebc a7e5 0ebb 4cf2 e33c a0ab a0bc
000003a0: c58a bc3c 5b24 733d 3898 debd 7c74 913c
000003b0: 5f0a 9a3d 2c04 473c 0b29 023d 4d46 22bd
000003c0: c630 99bb 91ab 333c a169 4e3d d059 abbc
000003d0: 19a2 31bd 7763 f43b d08c 1ebd e093 bbbc
000003e0: 6bd3 bfbc 5331 15bd a94c 63bd 3fea 483a
000003f0: 0db6 943c db10 353d 4927 4b3b 7baa 263c
-0.05941276 -0.055854283 -0.051219556 -0.03945374 -0.08889717 -0.023971407 0.042272475 0.056523163
0.07059763 -0.003941578 -0.065709025 -0.026878648 0.03406252 0.048860766 0.052867364 -0.052812874
-0.054677844 -0.08060369 0.012313938 -0.042732634 -0.044321306 0.0022430823 -0.07183222 -0.07602817
-0.032596923 0.024249027 -0.048161104 -0.04326842 -0.06945069 -0.004541611 -0.07856687 -0.03960739
-0.057054464 0.027032237 -0.032695394 -0.06392179 0.014118094 0.12010901 -0.0064399797 0.07156306
-0.019645605 -0.040780004 0.041827217 -0.008964463 0.040569615 0.004438561 0.0040459326 0.053862136
0.0046217055 -0.028055657 -0.027973168 -0.03586919 -0.05037847 -0.0015535121 -0.038735684 -0.07964506
-0.0547893 0.010231091 0.0072338628 0.0418946 -0.024410596 0.02542339 -0.015085832 0.060798142
0.0024441232 0.022631865 0.04998274 -0.088030875 0.027929485 -0.02008868 0.020834357 0.047057707
0.02130652 -0.0003191828 -0.027665338 -0.010170162 0.011894879 -0.0016317454 -0.054368142 -0.012282146
-0.024644451 0.0025312265 -0.0010117367 -0.08967623 -0.06432735 0.062797815 0.039652206 0.05226137
0.03458963 -0.0900504 0.058043607 0.05910552 -0.020960063 0.02821784 -0.03643762 -0.03641734
-0.01566078 0.074840456 -0.037378546 -0.026587453 -0.027203124 -0.014522048 -0.0737889 -0.016064897
-0.012143002 -0.053416293 -0.023990767 -0.033703998 -0.029942803 -0.07773275 0.037325434 0.05297862
0.032240238 0.037892506 -0.011405655 0.007744042 0.0569247 -0.02833163 0.0007007747 0.04438885
-0.028991487 -0.0062800753 -0.00466903 -0.022458743 0.0014104327 -0.07218851 -0.042700533 0.025077125
0.030982986 -0.030253973 -0.101996645 -0.06166292 0.04166916 -0.008887772 0.06153211 0.0030860042
0.0020376944 -0.022343637 0.057850204 -0.04739718 -0.01823822 -0.0019334572 -0.045771055 0.01104246
-0.012037262 -0.029169597 0.022562128 -0.017324539 -0.031682957 -0.023540223 0.091872714 0.05329457
0.010840619 -0.007097084 0.0038162353 -0.035319574 -0.056296118 -0.049347635 -0.09150235 -0.08057579
0.006001169 0.012524118 -0.0002507655 0.06842617 -0.012946368 0.0109159555 0.061261714 -0.01299861
0.026226416 0.01154584 -0.008485874 0.08255778 0.063586675 0.06252064 -0.022772398 -0.04140472
-0.0380328 0.009615779 -0.02061252 -0.020329067 -0.014230466 0.10391936 0.037766695 -0.04378932
-0.07101868 0.028615901 0.007139307 0.04302856 0.03322129 -0.100108385 -0.043910436 0.0046757106
-0.040004693 0.015555479 -0.035419255 -0.047262482 0.057218492 -0.02239592 0.037914686 0.023680434
0.002247048 0.070987225 0.048522867 0.012565246 -0.010723505 -0.045195304 -0.05351025 -0.044972196
-0.03743668 0.010908492 -0.06573118 -0.012305709 -0.004924821 -0.076019734 0.0006597454 -0.059491783
-0.12878841 -0.068887874 -0.034985416 -0.015728094 0.07258095 0.12006437 0.035161383 -0.019598896
-0.039708737 -0.006377581 -0.018390814 0.041599605 -0.021330697 -0.0021804364 0.027825497 -0.019613087
0.02301539 0.059360843 -0.10868877 0.01775574 0.075215094 0.012146991 0.031777423 -0.039617825
-0.0046750037 0.010966198 0.050393704 -0.02091685 -0.04336748 0.007458146 -0.038708508 -0.02289766
-0.023416242 -0.036423992 -0.05549303 0.00076643 0.018153215 0.044205528 0.0030998758 0.010172482

StatefulPartitionedCall/sequential/conv2d_1/Conv2D_bias_fused_bn f4 [16]
00000000: d3d0 42bf 0e61 34bf 3447 27bf 1abb 78bf
00000010: 8e41 69bf 1eb8 f0be 2600 4fbf 98e3 e3be
00000020: 07a6 0cbf 6e8a 3fbf 3eeb 77bf 99a2 8cbf
00000030: 4e97 2dbf feee 5ebf e813 30bf 3467 13bf
-0.7609989 -0.70460594 -0.6534302 -0.97160494 -0.91115654 -0.4701547 -0.808596 -0.44509578
-0.5494084 -0.748206 -0.96843326 -1.0987121 -0.67809 -0.87083423 -0.68780375 -0.5757935

StatefulPartitionedCall/sequential/conv2d/Conv2D_weights_fused_bn f4 [16, 1, 3, 3]
00000000: 50ec a83c 74ed 0f3c b8a8 153d 7ad5 57bb
00000010: b07d 03bb d178 4e3b c261 ddbc 036d 02bd
00000020: 6125 c8bb e4ab 993a 79c6 053b d15f b7ba
00000030: 1d54 f639 c6a1 983b 2eb9 49b8 c66a 89ba
00000040: 3140 dc3a 754f 2d3b 3af5 7b3b efbf 423c
00000050: 2831 8c3c a8ee 32bc b40a 2cbc 2717 31bb
00000060: eb29 07ba d946 5ebb 4c32 abbb 47d4 3c3b
00000070: 5a40 08bc 2b86 a9bc 806f 0f3c 6cd5 adbc
00000080: 9c01 a2bc 0c10 2d3d 2229 8d3c eb7d 25bb
00000090: 2a91 a83b f04f b9ba b331 b7bc a6f1 7e3c
000000a0: 638f af3c 6f7b 9ebc 5f82 013c e585 523c
000000b0: cbbf 95bc 60d7 113c 6919 8dbc da6b 563b
000000c0: 19f5 313c 3c32 bdbc ae8e 7ebc b29b 663c
000000d0: dcb1 df3b d9a6 ef3b 1ed3 183d c1b6 8e3c
000000e0: 4b82 48bc a11f ef3c 723f 173c c8f4 bbbc
000000f0: 1f0b 40bc 3b04 d1bc 6c2a a6bc 8601 85bb
00000100: bfcd 0eba 7b4d 863a 1abf 14bb d5e1 463b
00000110: 599f 203b c9e9 1338 9707 893b d87e 21bb
00000120: 16a7 deba 005f 483d 14bf 713c cbbb 6ebb
00000130: 8f4a 673c 610b 963b 0c22 0abd e50b 86bc
00000140: 75d0 b1bc d26a 1db9 4887 53ba 7ab0 663b
00000150: 3f93 8339 8a5f 81bb d92c 853a df2b a03a
00000160: d54a 5bbb 4d24 0dba a32f 243b f71c 4739
00000170: 6165 a236 a6bd 09bb b549 31bc 87aa fcb8
00000180: f411 0f3b 1881 363a 5ee0 4a3b bea1 f1bb
00000190: 0e86 93bb ca1c 40bb 2bcd aabb bf1c 3d39
000001a0: 3f72 a53b 6034 93ba 57a2 0a3c 3c65 543b
000001b0: 9dcd 133c e970 193c dc3f 63bc 1864 843c
000001c0: 3d6e f73a b476 acbc 4d8e 173c 52b0 b7ba
000001d0: e625 14bc 11cf 753b 3da3 843b 270e 363b
000001e0: a754 b33a 3259 afbb 5782 dfba 8ccd 6fba
000001f0: e21f b0bc d6cb 01bb c24f b23a 882f dabb
00000200: da09 0d3b 5256 2cbc aa07 bfbb 1556 4a3c
00000210: 8c0e e4bb 4dda c4ba 2b85 153c db3e 3a3c
00000220: 2ec2 03bc fc6f 2fbc 073c 813c 2eb5 cfbb
00000230: f0ac afbc 0677 c43c a95e 7f3b b8d0 57bc
0.020620495 0.008784641 0.036537856 -0.0032933638 -0.002006393 0.0031505118 -0.027024154 -0.031842243
-0.0061079715 0.0011724201 0.0020412488 -0.0013990348 0.00046983446 0.004657957 -4.8094596e-05 -0.0010484091
0.0016803798 0.0026445065 0.0038445727 0.011886581 0.017113283 -0.010921158 -0.010500599 -0.0027021857
-0.00051560876 -0.003391674 -0.0052245017 0.002881305 -0.008316124 -0.02069386 0.008754611 -0.021219932
-0.019776158 0.04225163 0.017231528 -0.0025252055 0.005144258 -0.0014138203 -0.022362566 0.015560543
0.021430677 -0.019345967 0.007904618 0.012849306 -0.01827993 0.008901447 -0.01722403 0.0032718093
0.0108616585 -0.023095243 -0.015536947 0.014075207 0.0068266224 0.007313591 0.037310712 0.017421128
-0.0122380955 0.029189887 0.009231435 -0.02294387 -0.0117214015 -0.025514713 -0.0202839 -0.0040590195
-0.00054475287 0.001024648 -0.0022696913 0.0030347009 0.002450904 3.526526e-05 0.004181813 -0.0024642255
-0.0016987051 0.048918724 0.014755029 -0.0036427851 0.014116897 0.004578993 -0.033723876 -0.016363094
-0.021705845 -0.0001501248 -0.00080691697 0.0035200403 0.00025095974 -0.0039481567 0.001016046 0.0012220106
-0.0033461351 -0.00053841324 0.0025052808 0.00018988909 4.8397783e-06 -0.002101758 -0.010820796 -0.000120480596
0.002183077 0.00069619855 0.0030956487 -0.0073740175 -0.0045020645 -0.0029314035 -0.005212446 0.00018035153
0.0050490196 -0.0011230819 0.008461556 0.0032408973 0.00902119 0.009365299 -0.013870206 0.01616101
0.0018877458 -0.021052696 0.009250236 -0.001401434 -0.009042239 0.0037507454 0.00404778 0.0027779432
0.0013681845 -0.005351209 -0.0017052394 -0.00091477553 -0.021499578 -0.0019805334 0.0013604092 -0.006658498
0.0021520765 -0.010518627 -0.005829771 0.012349625 -0.006959742 -0.0015018672 0.009125988 0.011367525
-0.0080419015 -0.0107078515 0.015775694 -0.006338737 -0.021444768 0.023982536 0.0038966334 -0.013172321

StatefulPartitionedCall/sequential/conv2d/Conv2D_bias_fused_bn f4 [16]
00000000: 648b 013f 448f 7ebf 6299 443e 84a6 bd3d
00000010: 9497 29be 3224 8b3e a8a2 8cbd 1d00 c7bd
00000020: 0372 63bf a8e3 a63e 5a75 ea3e 2745 983e
00000030: 0972 58be 11a6 893f f113 183f e75d db3e
0.5060332 -0.99437356 0.19199136 0.09260276 -0.16561729 0.27176052 -0.06866962 -0.097168185
-0.88845843 0.32595563 0.45792657 0.2974026 -0.21137251 1.0753804 0.5940543 0.4284508

StatefulPartitionedCall/sequential/batch_normalization_4/batchnorm/sub:0 f4 [3]
00000000: 7e78 f93e 5d93 ed3e 36de 1d3f
0.4872474 0.46401492 0.6166719

StatefulPartitionedCall/sequential/batch_normalization_4/batchnorm/mul:0 f4 [3]
00000000: c19a 9a3b 6c0b 8f3b ed05 083b
0.004718155 0.0043653753 0.0020755485
