etc/neural_networks/preclassifier.onnx (onnx, 94987 bytes, 17 tensors)

StatefulPartitionedCall/sequential/dense_3/MatMul/ReadVariableOp:0 f4 [121, 1]
00000000: 42e7 573f c4ad 703e c682 d03e 8ccc aabe
00000010: c7fc c53f e579 023f 7043 82be cca5 a9be
00000020: 328f 9e3e 7c41 12bf 3032 cd3e f80a e0bd
00000030: f973 04bf 775b 2f3c 8014 cb3e aa5c d33e
00000040: fd7d 063f cc89 d63e 5b5c bfbd 5c3e 4b3e
00000050: 2576 75be 6d62 90be 01da a6be f4d2 0a3f
00000060: ddbe 113f 33da a13f 437e a5bf 5dcc 8e3e
00000070: f40c df3e 0446 07bf c79a d4be b6c6 e4be
00000080: f4ea 1dbe 0a01 da3e 7831 04bf 7e58 e63e
00000090: 6f83 db3e 69fc 893e 2225 20bf bebd 12bf
000000a0: f422 03bf f6fe 113f e522 443e a798 2ebf
000000b0: 94f2 13bf 50fd 10bf e19c a6bf e343 7b3e
000000c0: 903b 7c3f 081a ecbe ec88 53be 866e 013f
000000d0: ff9f 29bf 848e c9be aa85 d1be 7176 babe
000000e0: 4543 efbe 138c 233f 0c1b e13e 5267 c43e
000000f0: f670 b03e ab63 033f d2d2 1abf 5f7e 273f
00000100: acfb 9b3e 50d0 ebbe 7e29 a4be d390 9f3e
00000110: c2a1 bebe 218a a3be dded 2e3f d765 ef3e
00000120: 2287 93be 236b 093f 0f11 bdbe b06f 0ebf
00000130: 5fa0 f93e 12f7 043f 8781 ef3d 8728 533e
00000140: b3f8 a43e 284b 21be 7304 753e 72c7 853e
00000150: 354c 6f3e b4db 963e 7a33 8e3f 281c 56be
00000160: c023 ee3e eb70 12bf 4d18 98be a11c ea3e
00000170: b8d0 ca3e 6bd9 d1be 2479 cfbe 77b3 8bbe
00000180: 69e9 aebe 3935 5f3e e5b6 71bf 6388 b13e
00000190: 63f0 8e3e 2024 053f 0ed2 c9be e87f 9bbe
000001a0: c3be bc3e 1328 183f 60cd 893e a36b cfbe
000001b0: f402 f8be 3484 02bf 7f3b a03f 98b3 b73e
000001c0: 6519 623f 4a87 0b3f f881 1bbf ab16 cabe
000001d0: 2ae0 b0be 6cfc 70be cc8a d8be db05 db3e
000001e0: 0c8a d2be
0.84337246 0.23503786 0.40724772 -0.33359182 1.5467767 0.50967246 -0.25442076 -0.33134305
0.30968624 -0.5713117 0.40077353 -0.10939592 -0.5173946 0.010702959 0.39664078 0.41281635
0.5253599 0.41902006 -0.09343787 0.19848007 -0.2397085 -0.28200093 -0.325882 0.5422814
0.5693186 1.2644714 -1.2929157 0.27890292 0.4356457 -0.5284121 -0.41524336 -0.44682854
-0.15421659 0.42578918 -0.51637983 0.4498939 0.42873713 0.26950386 -0.6255666 -0.57320774
-0.5122521 0.57029665 0.19153936 -0.6820168 -0.5779202 -0.56636524 -1.3016626 0.24537615
0.98528385 -0.4611361 -0.206577 0.5055927 -0.6625976 -0.39366543 -0.4092229 -0.3641849
-0.4673101 0.6388561 0.43965948 0.38360077 0.34461182 0.51323956 -0.60477936 0.654272
0.30465448 -0.46057367 -0.32062906 0.3116518 -0.37232786 -0.31941321 0.683317 0.46757385
-0.28814036 0.536791 -0.36927077 -0.5563917 0.48755166 0.519395 0.11694627 0.20620929
0.32220992 -0.15751326 0.23927478 0.26128727 0.23368914 0.29464495 1.1109459 -0.20909178
0.4651165 -0.5720355 -0.2970604 0.45724967 0.39612365 -0.4098619 -0.4052211 -0.27285358
-0.34162453 0.21797647 -0.944197 0.34674367 0.27917776 0.5200825 -0.39418072 -0.30371022
0.3686429 0.5943615 0.269145 -0.40511808 -0.48439753 -0.50982976 1.2518157 0.35879207
0.8832 0.5450331 -0.6074519 -0.3947042 -0.34546024 -0.23533791 -0.42293394 0.42777905
-0.41120946

StatefulPartitionedCall/sequential/dense_2/MatMul/ReadVariableOp:0 f4 [52, 121]
00000000: be4b 4e3e 58b6 1c3f 56eb d63e 314b 42bf
00000010: efac 803e c5ac 0d3e d98b 70be e6ed 16bf
00000020: 0b46 ee3c e993 9f3c d291 903e 6aa3 0fbf
00000030: d863 35bf f319 59bf f296 ca3e 0ce0 b23e
00000040: 8726 0f3f 2a29 e73e f018 9dbe 8459 683e
00000050: a88c 13bf ca8e 0bbe 8f12 0bbd 9695 863e
00000060: f883 4bbc 7176 0b3f 6176 96bf a402 9e3e
00000070: ac99 8c3e 7257 acbd 7af4 31bf 315b 49be
00000080: 7768 16bf e050 a13c 09bc 53bf d3e7 90bd
00000090: 4c96 f93e 0d14 bd3e 9960 5abf 544d d4bd
000000a0: 3221 13bf 4016 493e 3fde 5f3e e16e 22bf
000000b0: c971 a0bd 9c57 0abf 5994 a8bf a5cd e63e
000000c0: 0523 5c3e fdd6 f9bd e83d 07bf 2c72 f33d
000000d0: 9b6f debe cd9b 23bf deef adbd d2f8 58be
000000e0: 7af8 42bf e4f7 ca3e 3265 433e 095c eb3e
000000f0: 5fb0 bf3e 54a6 7d3e 5a23 d1be 606b af3d
00000100: d699 fd3d d16e d23c 5a31 6fbd 3263 a43e
00000110: 1c9b a8bb f5da bbbe 1565 31be 2a9b 843e
00000120: 478f dabe 9c03 073f c702 34bf 0fbc cfbe
00000130: 16a9 1c3e 50b3 3c3f 962b 14bf d3c4 583f
00000140: 82e8 693f ba87 24bf 22f9 5e3e ef6d fd3e
00000150: 3b01 933e 1061 44bf 6d97 b13d 916e 8ebe
00000160: 7740 373e 326a 0bbf b23f 0ebe 30be 153f
00000170: 515d d53e 48c6 70bd 8289 3cbf 06b6 27be
00000180: bf93 a13d 4fba f53c f3dc a6bf e975 823e
00000190: 08ff 5b3e 07d7 c93e 3066 e0be aef5 23bf
000001a0: c4d3 af3e 53bc 403f d9f2 f43e 9c6d 58bf
000001b0: ae1d d1be 5858 c8be 1358 213e 7c7d 2a3e
000001c0: 3a80 f83e 3718 cb3e f2ce 01bf 1e5e 52be
000001d0: 8253 96be 487e 8dbe 350a f7bd 436c aabd
000001e0: fe36 d7be 469a 603f ef05 993e 07d4 0d3f
000001f0: ea14 06bf acaf 2e3f ebff 7f3f d2fa 023d
00000200: e954 cdbe b891 00bc 16d5 a43e db52 c43e
00000210: a221 11bf 0b26 56bf 693a 62bf 6376 593f
00000220: b5b4 c53e 1329 f93e 9066 1f3f e1cc 26bf
00000230: d47b 21bf 5900 edbe b098 95be b6a2 ffbe
00000240: b53e d73e cab1 933b 5f35 4b3f faad 6bbf
00000250: 74f4 5e3e a81d a23e cea4 313e b13c 28bf
00000260: ad2d 8ebd 0ae9 c7be 406e 413f b49b f6be
00000270: e029 7b3f 9309 2b3f 3aef 4f3e 4cf6 36bf
00000280: 37c0 de3d 4156 73bf 0b39 3d3f 4d86 5f3f
00000290: 0e59 0fbf bed7 063f 1760 0dbf 72d7 8cbf
000002a0: 6a6b 2c3f d862 263f dd9b adbe 6394 f4be
000002b0: 874c 453f 42d3 19be cc65 3abf 66e6 9e3e
000002c0: 3813 9dbe e842 28bf e766 7dbe 3ca1 253e
000002d0: a432 803f b4bb 1a3f 4d11 ce3e 3f79 e0be
000002e0: 5afa 203f cd7b a63f 54e8 583e 1175 273e
000002f0: 27f1 8c3f 412b c5be db28 80be 2369 c4bc
00000300: 2d38 583f 1024 2abf 5097 423f 1ced 74bf
00000310: 1cfb b6be 62a8 c53e 9684 b33f 1a60 97be
00000320: 341e 923f 6226 2a3f 6670 22bf 9edb ef3e
00000330: 909b a93e 952c 893e 062b 84bf 86cd 243f
00000340: 5d08 aabd bf28 a83e 9c49 f4be 8759 08be
00000350: e260 d4bc 5594 633f a55c fe3e 10eb 46bf
00000360: 9622 afbd 7776 28be 9b42 743e 2216 5abf
00000370: fe7e 7a3e d69e 013f 497c ae3f 771e babe
00000380: 9246 10bf a690 823f 8b31 e5be f223 633f
00000390: c6ac 54bf a4ac 98be 8094 37bf c38f 273f
000003a0: 7a28 693f ce59 f83e fd6b afbe abd7 ebbe
000003b0: 0abf c63d 153e 5bbe 149e b7be fd0c 04bd
000003c0: b013 7e3f 7f58 74be 31e8 7ebd 3ab7 223e
000003d0: 28cd cd3d fa6d 753f 2ba0 fabd e2fa 3dbe
000003e0: 52ba 4c3f b9d2 073e 5c95 d73e d9c2 613f
000003f0: 2677 093e 6b0c 16bf b578 4b3f d109 f8be
0.20146081 0.61215734 0.41976422 -0.75895983 0.25131938 0.13835438 -0.23490848 -0.58956754
0.029086133 0.019479709 0.28236252 -0.56108725 -0.70855474 -0.8480522 0.39568287 0.3493656
0.55918163 0.45148593 -0.30683088 0.22690398 -0.576365 -0.13628688 -0.033953246 0.26286
-0.0124216005 0.544776 -1.1754876 0.3086139 0.27460992 -0.08415116 -0.69513667 -0.19663693
-0.5875315 0.019691885 -0.82708794 -0.07075467 0.4874748 0.3692936 -0.85303646 -0.10366312
-0.5747253 0.19637394 0.21862124 -0.6345044 -0.07834203 -0.5403993 -1.3170272 0.4507877
0.21497734 -0.12199209 -0.52828836 0.11887011 -0.43444523 -0.6390961 -0.08493017 -0.21188667
-0.76160395 0.3964225 0.19081572 0.45968655 0.37439248 0.2477048 -0.40847284 0.08565402
0.123828575 0.025687607 -0.058396675 0.3210693 -0.0051454436 -0.36690488 -0.17323716 0.2589963
-0.42687437 0.5273988 -0.7031674 -0.40573165 0.15298876 0.7371111 -0.57879007 0.8467533
0.91370404 -0.642696 0.21774724 0.49497935 0.28711876 -0.76710606 0.0867146 -0.2781873
0.17895685 -0.54458916 -0.13891485 0.5849333 0.41672757 -0.058782846 -0.7364732 -0.1637803
0.078895085 0.029996065 -1.3036178 0.25480583 0.21484005 0.39421865 -0.43827963 -0.6404675
0.34341252 0.7528736 0.47841528 -0.8454225 -0.40842956 -0.391299 0.15756254 0.16649431
0.4853533 0.39666912 -0.507064 -0.20543715 -0.29360586 -0.27635407 -0.12062494 -0.083214305
-0.42034143 0.877354 0.2988734 0.55401653 -0.5237566 0.68236804 0.99999875 0.031977482
-0.40103844 -0.007847242 0.32193822 0.38344464 -0.56691945 -0.836518 -0.88370377 0.8494627
0.3861443 0.4866415 0.6226587 -0.6515637 -0.6307957 -0.46289328 -0.29218054 -0.49928826
0.4204003 0.004507278 0.7937831 -0.9206234 0.21772939 0.3166325 0.17348024 -0.6571761
-0.06942306 -0.39044982 0.75558853 -0.48165667 0.9811077 0.66811484 0.20306101 -0.7146957
0.10876506 -0.9505349 0.73915166 0.873143 -0.5599526 0.52672946 -0.55224746 -1.1003249
0.673514 0.64994574 -0.33907977 -0.4776946 0.77069896 -0.15021995 -0.7281158 0.31035155
-0.30678725 -0.6572709 -0.24746285 0.16174787 1.0015454 0.6044266 0.40247574 -0.43842503
0.62882006 1.3006531 0.21182376 0.16353251 1.1011094 -0.38509563 -0.2503117 -0.023975914
0.8446072 -0.66461277 0.76012135 -0.956743 -0.35738456 0.38605028 1.4024837 -0.29565507
1.1415467 0.6646482 -0.63452756 0.46847242 0.33126497 0.26791826 -1.032563 0.64376104
-0.083023764 0.32843587 -0.4771241 -0.13315402 -0.025925104 0.8889821 0.49680057 -0.77702427
-0.085515186 -0.16451441 0.23853533 -0.8519002 0.24462506 0.5063299 1.3631679 -0.36351368
-0.5635768 1.0200393 -0.4476436 0.88726723 -0.8307613 -0.29819214 -0.7171097 0.6545374
0.9107739 0.48506016 -0.34262076 -0.4606298 0.097044066 -0.21410401 -0.35862792 -0.03223895
0.9924879 -0.23861884 -0.062233154 0.15890208 0.10048896 0.95870936 -0.12237581 -0.18552735
0.799718 0.13263978 0.4210614 0.8818794 0.13424358 -0.586127 0.7948106 -0.4844499

StatefulPartitionedCall/sequential/dense_2/BiasAdd/ReadVariableOp:0 f4 [121]
00000000: e413 eeb7 47b0 e339 e1ab 4cb9 a342 6538
00000010: 8d0b b139 ef0b fab6 c2b5 bcb7 6429 1637
00000020: e5a9 9838 8687 e3b5 8e0e 9eb8 d972 2ab7
00000030: de78 6bb9 3949 19b8 cbfa 4eb9 7114 84b7
00000040: 6b6a 33b9 1f61 fc38 1499 b2b6 6e1b 39b8
00000050: eeca 2039 7a41 ddb8 71af 8db8 f44e 20ba
00000060: 9582 2d38 5104 55ba 8c73 96b8 40f0 bbb9
00000070: 2468 3a39 6282 c638 eb40 ce38 9f98 5ab9
00000080: a219 3237 bdb3 1639 c0a4 d738 82bb 7f38
00000090: adb9 94b8 91e0 ca38 7537 82b8 bc51 63b7
000000a0: 46e2 2339 78c3 8cb8 ebbc 3738 3b1e 91b7
000000b0: f343 8db4 1edc fcb8 bc69 8538 97ca 7738
000000c0: c630 f539 1ffb cab8 fabe 35b2 1e11 feb8
000000d0: 11d3 0537 4538 03b8 8f93 32b9 40ab d236
000000e0: d670 2038 85f1 cfb8 41e8 16b9 1c14 b138
000000f0: 93a0 e6b8 8ebb bb38 8143 89b5 8608 1bb8
00000100: 129d df37 2a1e b8b7 3135 4038 e8d5 03b6
00000110: f9ae 4637 819e f938 6cad f637 8788 44b9
00000120: e826 74b8 c71f e3b9 b4dc 9137 bb10 2bb9
00000130: 1a83 46b9 426d 8bb6 c163 2d37 5071 cf37
00000140: 1275 bc37 bf75 05b7 7039 dcb8 a6bd 8bb7
00000150: 5f5e 63b9 ec9a a3b7 8e02 9b39 fa2c d1b8
00000160: 15e9 8238 aabe c938 0a51 94b8 1afd 4fb7
00000170: 6ab4 f238 8062 8138 34a7 3fb8 742b 8b38
00000180: d31a 1439 49e9 cc38 66bc 8039 c577 e1b8
00000190: c9f0 8138 4543 1e38 56b0 4eb9 9c8b 0a38
000001a0: ae39 19b9 ba24 f6b7 5934 0438 96cd 6e39
000001b0: 17a6 fab8 8e18 5937 930f 94b8 aebe ab36
000001c0: 1e5c 0fb7 da49 4039 1b40 5239 c451 a737
000001d0: 5f4d 7fb7 66b6 0037 e085 13b8 1404 c038
000001e0: fd75 e637
-2.8381073e-05 0.0004342815 -0.00019518986 5.4659915e-05 0.00033768677 -7.45197e-06 -2.2495984e-05 8.950334e-06
7.27957e-05 -1.695226e-06 -7.536738e-05 -1.015953e-05 -0.00022456373 -3.6546237e-05 -0.00019739119 -1.5745145e-05
-0.00017110414 0.000120343866 -5.322634e-06 -4.4132983e-05 0.00015334386 -0.00010550297 -6.7560824e-05 -0.00061152806
4.1368028e-05 -0.00081259484 -7.17408e-05 -0.0003584642 0.00017777138 9.4656614e-05 9.8349374e-05 -0.00020846956
1.0615595e-05 0.00014372072 0.00010282686 6.0971368e-05 -7.091775e-05 9.673939e-05 -6.209213e-05 -1.3549285e-05
0.00015629185 -6.712129e-05 4.3806544e-05 -1.7299424e-05 -2.6312736e-07 -0.000120572964 6.361629e-05 5.9078066e-05
0.0004676638 -9.6788855e-05 -1.057901e-08 -0.00012114852 7.9765605e-06 -3.128524e-05 -0.00017030373 6.278424e-06
3.825206e-05 -9.915516e-05 -0.00014391636 8.443763e-05 -0.00010997164 8.95179e-05 -1.0226942e-06 -3.6962818e-05
2.6656813e-05 -2.1948556e-05 4.5825906e-05 -1.964503e-06 1.1842459e-05 0.00011902769 2.9406241e-05 -0.00018742877
-5.8210368e-05 -0.0004332049 1.738812e-05 -0.00016314063 -0.0001893159 -4.155242e-06 1.0334829e-05 2.4729088e-05
2.2465862e-05 -7.954833e-06 -0.00010501116 -1.6658403e-05 -0.00021683563 -1.9503255e-05 0.00029565807 -9.974274e-05
6.242298e-05 9.619941e-05 -7.072285e-05 -1.2397091e-05 0.00011573064 6.1695464e-05 -4.569367e-05 6.63613e-05
0.00014124373 9.770931e-05 0.0002455443 -0.00010751145 6.196049e-05 3.7732785e-05 -0.00019711381 3.3031785e-05
-0.00014612704 -2.9342587e-05 3.1520005e-05 0.00022774035 -0.000119518656 1.2939925e-05 -7.060091e-05 5.118395e-06
-8.544912e-06 0.00018338059 0.00020051042 1.9946026e-05 -1.5217199e-05 7.6718625e-06 -3.5172212e-05 9.156033e-05
2.747308e-05

StatefulPartitionedCall/sequential/dense_1/MatMul/ReadVariableOp:0 f4 [47, 52]
00000000: 3b5c 0dbf f080 e9be f8b8 e2be 6f34 b23c
00000010: 0d37 c6be 96e9 08bf 67d9 e63e 295e 903e
00000020: 99e1 90be e13d 81bf 33a3 8c3e b6dd 903e
00000030: 7dbe a93e bc5e cc3e ff23 4dbf 5c6b 5abf
00000040: 9a34 50be a381 4cbf c8c8 27bf 26bd 073f
00000050: 0abf a6be 838c e93e e12c cf3e 97fd 063d
00000060: 6f5b 41bf c695 2bbe 18f5 d2be a720 45bf
00000070: 8e6f 413f 386b a0bf ec1a 013f 9c18 ffbe
00000080: de37 063f a9a2 603e bd17 803e ef8e d3bd
00000090: 06c5 293f 0d9e c03d e2d6 e03e 4a1e 8cbd
000000a0: c86b 1e3e ed4f 55bf 4bd1 b6be 5e67 38bf
000000b0: e53d 0ebf a12d 713e f38b 98bf 6e46 6c3e
000000c0: 657b 28bf d6d2 7a3e aaef 8fbf 0da3 19bf
000000d0: 8a40 31be bd7a 8dbe 097b edbe 109d e7be
000000e0: 60da cbbd 20f0 0cbf f197 873f 1cca 993d
000000f0: b3f4 6d3d d2a8 663f ed06 013e 450a a2be
00000100: 8e47 083f 5426 2dbf 8ba2 c1be 496e ca3e
00000110: 1ace 63bd ff95 29be bb75 cabe deab 793e
00000120: 3f03 da3d c6b8 f9be 5b64 323e a708 2b3f
00000130: 99b6 113f e740 bc3e ec78 bebe d6a5 863f
00000140: 21d9 b6be c4b9 a63f c64f c73c c17b 1abf
00000150: 3865 363f 4503 bb3e 521c aa3e 1327 12bf
00000160: 599c b1bf 36ac ddbd f1e2 513f 2314 d9be
00000170: 7363 75be 3ad1 6f3f fe99 1d3f 6acd 44bf
00000180: bda9 91be 661d 60bd d48d 2a3f 59cb 073f
00000190: 8e5f edbd 1027 843f 0f9c 983e a7ed 9abd
000001a0: b3ae 47be c917 21bf d09a 9c3d 1114 69be
000001b0: fe8f 4f3d ccc6 0d3f 4f86 d6bd bfbd 353f
000001c0: d96b 12bc ec70 91bf de2e 4dbf 30ee 3c3e
000001d0: 7977 abbd bf4d 33bf ee21 d43e d10c d6be
000001e0: 8856 5d3e 1097 3abf 6243 b43e c9b6 b93e
000001f0: 9344 f13b 6ced 1b3f 8015 083f f5b0 4bbf
00000200: d4d0 a8be e8a8 4e3e d4ca 82be 256e bfbe
00000210: 89c8 60bf af15 9a3c d51a 773f d5d0 b3be
00000220: b360 fcbe 5360 55be dfd4 703d f9db 45bf
00000230: d3c3 55be a2b6 413f 00b9 a9be b2e4 273e
00000240: 85b8 39be 6a5a c0be d0a6 023f 7c48 ae3e
00000250: 0c5d bbbe 4f72 ce3e 6594 a6bf 29f5 79be
00000260: b560 b6bd 663e f73e f3c7 66bf b9b1 81bf
00000270: c0f7 473f b1ea 91be c6bc 8c3f 6c58 a0be
00000280: a83b ce3e c352 693e 1570 153e 96c9 09be
00000290: 71a6 613d 4326 203f 30cb cf3d fd1a 24bf
000002a0: b953 1b3f f91f 10bf 48d1 21be 5bb4 3e3f
000002b0: cf79 08bf 28ca a93e 8ec0 aebe 2e99 533e
000002c0: 53d7 443f ccc2 0bbd 5a50 fe3e 624a 6e3e
000002d0: 26f4 493f 1c83 1c3f e4bf ffbc 143f 28be
000002e0: 4d35 13bf a050 37bf 0bf3 06bd 8a56 ebbc
000002f0: 235a 7dbe 2fb4 303f 8521 0e3e 0e03 94be
00000300: 2ef2 95be d9c2 e9bc b7d9 243d bb8c 5abe
00000310: ea2a 393d 7b18 533f b11b 983f 8bc5 0e3e
00000320: 4e03 babe d248 283c c8dc 3ebd a476 62bf
00000330: 5a97 243e 986f be3e 1cc1 1c3f 9a7d 8fbe
00000340: 5267 163e 8de2 fb3b a919 b7bf 0848 1fbf
00000350: 72a2 94bd 8ad5 5cbf 44fd 59bf 9b05 52bf
00000360: 5232 b3be a249 87bf 9b23 65bf f0cc 77be
00000370: 5c47 22bf 151d 27bf 7b98 38bf 94fc 61bf
00000380: 5052 a53e 9d38 323d f628 cbbe 4511 55bf
00000390: d74f 1fc0 0e18 73be 07d6 c5bf e7ab e3be
000003a0: e119 edbe 1d93 e3be 5525 dfbe 6754 763e
000003b0: 3de1 93be a7f3 b5be 1932 21bf e046 c4be
000003c0: ce7f dabd 261b 26bf cf53 20bf 0c29 19bf
000003d0: 7b41 07be 235a 8cbe 498b aebf c068 7b3e
000003e0: 6605 98be 8247 4bbf e5ef a8bf 209f fabe
000003f0: 0963 ffbe 9bf5 96bf 8104 a6bf e467 52bf
-0.5521886 -0.45606184 -0.44281745 0.021753518 -0.38713875 -0.53481424 0.4508774 0.28196838
-0.28297117 -1.0097009 0.2746826 0.28294152 0.33153144 0.39916027 -0.8013305 -0.8532007
-0.20332566 -0.7988531 -0.6554074 0.5302299 -0.32567626 0.45615014 0.40463927 0.032956686
-0.7553014 -0.16756353 -0.41202617 -0.7700295 0.75560844 -1.253272 0.50431705 -0.49823463
0.52428997 0.2193705 0.2501811 -0.10329997 0.6631626 0.09405146 0.43913943 -0.06841715
0.15470803 -0.8332508 -0.35706553 -0.72032726 -0.55563194 0.23552562 -1.1917709 0.23073742
-0.65813285 0.2449449 -1.1245015 -0.6001442 -0.17309776 -0.27632704 -0.4638293 -0.45237017
-0.09953761 -0.550539 1.0593244 0.075092524 0.05809469 0.9010135 0.12600298 -0.3164846
0.53234184 -0.6763661 -0.37819323 0.39537266 -0.055616476 -0.16561125 -0.39542946 0.24381968
0.106451504 -0.48773783 0.17421095 0.6681008 0.56919247 0.36768267 -0.3720163 1.0519359
-0.3571253 1.3025441 0.024330031 -0.60345083 0.712482 0.36525932 0.33224732 -0.5709087
-1.3875839 -0.10823862 0.8198691 -0.42398176 -0.23963718 0.9367863 0.615631 -0.76875937
-0.28449813 -0.054715537 0.6662266 0.5304466 -0.11590491 1.0324421 0.29806563 -0.0756486
-0.19500236 -0.6292692 0.07646716 -0.22761561 0.05067443 0.55381465 -0.10474836 0.70992655
-0.008936846 -1.1362586 -0.8014964 0.18450236 -0.08372397 -0.70040506 0.41432136 -0.41806653
0.2161504 -0.72886753 0.3520766 0.36272267 0.007362911 0.6090915 0.53157806 -0.7956689
-0.32971823 0.2018162 -0.2554537 -0.3738872 -0.8780599 0.018809168 0.9652532 -0.35120264
-0.49292526 -0.20837526 0.05879676 -0.77288777 -0.20875482 0.756693 -0.33148956 0.16395834
-0.18136795 -0.3756898 0.51035786 0.34039676 -0.36594427 0.40321586 -1.3014036 -0.24409927
-0.08905164 0.48289794 -0.9014885 -1.0132362 0.7811241 -0.28499368 1.0995109 -0.3131746
0.4027989 0.22785477 0.14593537 -0.13455805 0.05509037 0.6255838 0.10146177 -0.6410368
0.60674626 -0.56298786 -0.1580249 0.7449395 -0.53310865 0.33162045 -0.34131283 0.20663902
0.7689106 -0.03412132 0.49670678 0.23270562 0.78888166 0.6113756 -0.03121943 -0.16430312
-0.57503206 -0.716074 -0.032946628 -0.028727788 -0.24741416 0.6902494 0.13879974 -0.2890858
-0.2928633 -0.028535293 0.04024669 -0.21342747 0.04520694 0.8245923 1.1883451 0.13942544
-0.36330646 0.010271268 -0.046597272 -0.8846228 0.16073361 0.37194514 0.6123216 -0.28025514
0.14687851 0.007686919 -1.4304706 -0.62219286 -0.072575465 -0.86263335 -0.8515208 -0.82039803
-0.3499933 -1.0569346 -0.89507455 -0.24199271 -0.63390136 -0.6527875 -0.72107667 -0.8827603
0.32289362 0.043511022 -0.39679688 -0.83229476 -2.489248 -0.23739645 -1.5455941 -0.4446709
-0.46308807 -0.44448176 -0.4358317 0.24055634 -0.2888278 -0.35537454 -0.6296707 -0.38335323
-0.10668908 -0.64885175 -0.6262788 -0.5982826 -0.13208573 -0.2741252 -1.3636256 0.24551678
-0.2969162 -0.7940599 -1.319821 -0.48949528 -0.49880245 -1.1793703 -1.2970124 -0.82189775

StatefulPartitionedCall/sequential/dense_1/BiasAdd/ReadVariableOp:0 f4 [52]
00000000: f88c 82bf 93df 95bf 633a 19bf bb15 babf
00000010: aaa3 82bf b127 99bf 54dc cebf b496 9bbf
00000020: b70e 24bf 0632 33bf 26ac 9abf ee33 f5bf
00000030: d060 d0bf 5ade 94bf b63c 11bf e439 99be
00000040: 6d2a 8ebf 1c3e 5ebf 32fb 32bf b8bb 85bf
00000050: 13c1 30bf da30 41bf 404b 31bf f07a 08bf
00000060: d96f a5bf 5d0d 92be 078b f83d e78b cdbf
00000070: 097c f9bf 471c 98bf b180 93be f22e dabf
00000080: 0c29 c8bf d0db 82bf 5e0b 73bf f7fc ddbf
00000090: a72d 84bf 9ec8 0cbf 676c bdbf 08de 6cbf
000000a0: f90f 97be 21f5 a5bf 2c36 2bbf aba7 7dbe
000000b0: de95 8fbf f152 35bf de31 eebf 6bb2 c7bf
000000c0: e14a 48bf c66e 3dbf 2fb7 d0bf 2253 b3bf
-1.019927 -1.1708854 -0.59854716 -1.4537882 -1.0206196 -1.1965238 -1.6160989 -1.2155366
-0.64084953 -0.69998205 -1.2083786 -1.9156473 -1.6279545 -1.1630356 -0.5673326 -0.2992698
-1.1106697 -0.8681352 -0.69914544 -1.0447912 -0.6904461 -0.75465167 -0.6925545 -0.5331259
-1.2924758 -0.2852582 0.12135892 -1.605832 -1.9490978 -1.188363 -0.2880912 -1.7045577
-1.5637527 -1.0223331 -0.9493922 -1.7342824 -1.0326432 -0.5499362 -1.4798707 -0.9252629
-0.29504374 -1.2965432 -0.66879535 -0.24770992 -1.1217611 -0.70829684 -1.8608968 -1.5601324
-0.78239256 -0.7399715 -1.6305903 -1.4009745

StatefulPartitionedCall/sequential/dense/MatMul/ReadVariableOp:0 f4 [256, 47]
00000000: a3ff ca3e 2ac1 9b3e 3bc6 02bf aad7 a73e
00000010: 89a2 0d3f b75c 91be 9181 b23d 2aaf 5f3f
00000020: 216c 333f cc0b 29bf 7b4a cdbe a1ed bdbe
00000030: 3737 a0bf 54d3 28bf c427 453e 5eaf 41be
00000040: 6cc2 54bf 96f3 3dbf 0120 04bf 88c7 aabd
00000050: 38aa 383f 5e6b 3e3d 575f 8a3e ef6e 8ebe
00000060: 7afd e9be 91b6 9bbe 37e1 743e 8e5e 01be
00000070: c313 9b3e 0135 9e3f 9f18 0b3f 8d24 423e
00000080: 5191 c5bd d059 bc3d 87f1 70be 55a7 063f
00000090: 5d18 c73d 05a3 003f 74a1 93bc 7627 443f
000000a0: 1722 bc3c 5eeb 3bbe b776 3cbf 2b76 d0bd
000000b0: 180b ae3e 0d55 93be 42fc aa3d 7be3 2abe
000000c0: ce90 2f3e 7bd8 a4be fc84 953c 19e6 66be
000000d0: d781 8f3e 14ef 563e fcc7 7f3e 205c b3be
000000e0: b69a 8abd 5403 803e e2a5 39bd 8a11 88bd
000000f0: ee64 793e dfc4 10bf 3c68 eebb ee6c ac3e
00000100: 6a84 5fbe bdf6 07bb b0ee e93e 814e 0abf
00000110: 655d 863e 6ff3 1ebe 9a90 4e3e c013 fdbe
00000120: 14e6 07be a07a ca3c 8dbe bf3d 3c3c bfbe
00000130: 19ea 2d3e 3ba8 48bd 0f89 9cbe 3b2c c03d
00000140: 8a5b 173f cbec e4bd 5f47 aa3d d9e2 983e
00000150: b56b 37be 7d02 563c 6ac8 8ebe 434c 07bf
00000160: 581c 7ebf 76c6 3b3f 81c4 0dbe 1609 f2be
00000170: 7877 a93e 20cc f3be 1eee 12bf 1ab1 c53d
00000180: 8f20 ebbd 0c25 afbe 446f 29bf 3d3f eebd
00000190: a5bd a93d cce9 e6be 5b62 3e3e a476 b33f
000001a0: 9060 183f 1c58 79be acc6 a43e cd62 8bbe
000001b0: 7e73 a1be 3e4b c2be 4b5f 38bf 77a0 853f
000001c0: 04e2 803d 7819 513f e9d4 263d 9fe7 543f
000001d0: 1bce c7be efdd 4f3f d9df 8b3f 37c9 213f
000001e0: 5540 f6be ba5e 2cbf 0705 ee3e dbda 86be
000001f0: b285 4c3d 8997 55bf 9c45 7abe c783 5f3e
00000200: f5b3 a23e e2a9 45bf 311d 163f 09cd 99bc
00000210: 249d b4be ccf6 af3f 73c9 c13e e2d5 a1be
00000220: 1ee6 053f 6f9e 363e 2b4c 733e 1e65 37be
00000230: 85a0 36bf 8984 a8be d410 3dbe 5b71 673e
00000240: 7636 cdbe 2a64 cf3d e459 bebe 62e7 19bf
00000250: 3e32 9abe b154 ac3e ccbe 043d 3d08 2c3f
00000260: d9cc 023c eb5d 0fbf cadd 2ebe 393b 8abe
00000270: 0a31 9a3c 4603 19bf f1d2 aabe 695b b1be
00000280: 23e1 d53d 4eec 24ba 040f ae3e 041e dcbe
00000290: 24f6 1c3e fe43 92be f646 10bf 34bb 3dbf
000002a0: 9a2a 4fbf 6f52 c63e ef84 273f 1b34 90be
000002b0: cc4a 73be fa87 dabb b2c2 423f ef94 0d3f
000002c0: c778 993b fd94 1cbe 3dbc c53a 73c9 2d3f
000002d0: 828c 3c3e c663 30bf 3b6b 34bf fa9d 02bd
000002e0: 2ca1 babd 262d 7c3d d45b 3f3d b919 29bf
000002f0: b57c af3e 57c0 4bbe 9110 b33d 27c6 013e
00000300: c708 4f3d 9b52 383d e8ed 0bbf 6008 d33e
00000310: 5647 933e 5d71 13be da40 acbe a3e2 39bf
00000320: 9110 50be 1d36 fcbd d02e 8c3e 6b9f bfbc
00000330: fd28 ca3e f828 17bf ceb1 57be bc73 433e
00000340: 3a7b 5e3e 3269 9f3e 73e0 223d fa98 013e
00000350: 07a8 13bf 776a 063e 4b3a 8d3e 3c0a 32be
00000360: 178f 33bf 8fd4 023f 4b83 4f3e 2d67 8f3d
00000370: d3db 1dbe 6e1f d53e 6da0 6cbe bafa 473f
00000380: 11ce 21ba 94d4 543e 52ad 8b3e b700 8ebe
00000390: a6f1 97be 7cb6 39bf 9596 11bd 06c1 503e
000003a0: 26c1 583d 0385 cd3e 4308 df3e 46e0 1cbf
000003b0: b8f4 d93e efe4 963e a3ce a03e aadb 08bc
000003c0: b292 cc3e 3260 33be 1cef dabe 8068 5f3d
000003d0: 70df 693e 9130 343e 5d3d 64be 2092 0e3f
000003e0: fa41 0fbe ace8 26bf b7fa 1cbf f4e3 f03e
000003f0: cc1f aabd 503f db3d cf90 4d3f 5d5c e6be
0.3964816 0.3042081 -0.51083726 0.32781726 0.55326134 -0.28391048 0.08716119 0.87376654
0.70086867 -0.66033626 -0.40095887 -0.3709536 -1.251685 -0.6594746 0.1925345 -0.18914554
-0.83109164 -0.7419981 -0.51611334 -0.08338839 0.72134733 0.046489112 0.27025864 -0.2781901
-0.457012 -0.30412725 0.23914038 -0.12633726 0.30288514 1.2359926 0.54334444 0.18959256
-0.096468575 0.09196818 -0.23529635 0.5259908 0.09721444 0.5024875 -0.018021323 0.7662271
0.022965474 -0.18351504 -0.73618644 -0.10178789 0.3399284 -0.28775826 0.083488956 -0.1668834
0.17145082 -0.32196411 0.018251888 -0.22548713 0.28028747 0.20989639 0.24978632 -0.35031223
-0.0676779 0.2500254 -0.045324214 -0.0664397 0.24354908 -0.565504 -0.0072756093 0.33676857
-0.21827856 -0.0020746433 0.45689917 -0.5402604 0.2624313 -0.1552255 0.20172349 -0.4942913
-0.13271362 0.024716675 0.093625166 -0.37350643 0.16983832 -0.048988562 -0.30573317 0.09383436
0.5912405 -0.11177977 0.08314394 0.2986057 -0.1791218 0.013062117 -0.2788728 -0.5285074
-0.99262 0.733497 -0.13844492 -0.47272557 0.3309896 -0.47616673 -0.5739459 0.0965292
-0.114808194 -0.34207952 -0.661854 -0.116331555 0.08288125 -0.45100248 0.18592207 1.4020581
0.5952234 -0.24350017 0.32182825 -0.27223817 -0.31533426 -0.3794803 -0.72020406 1.0439595
0.06293109 0.8167949 0.04073039 0.83165926 -0.39024433 0.8119802 1.0927688 0.63197654
-0.48095956 -0.6733204 0.4648821 -0.26338848 0.04993219 -0.8343435 -0.24440616 0.21827613
0.3177792 -0.77212346 0.5863829 -0.018774526 -0.3527614 1.3747191 0.37849006 -0.31608492
0.52304256 0.17833875 0.23759525 -0.17909667 -0.71338683 -0.32913616 -0.1846345 0.22601835
-0.40080613 0.10126527 -0.37177956 -0.6011869 -0.30116457 0.33658364 0.03240852 0.6720007
0.00798341 -0.5600268 -0.17076793 -0.26998308 0.018822212 -0.5977062 -0.3336406 -0.34640053
0.10443332 -0.00062913157 0.3399583 -0.4299165 0.1532827 -0.285675 -0.5635828 -0.74113774
-0.8092438 0.38734767 0.65437216 -0.28164753 -0.23759001 -0.0066690417 0.7607833 0.5530538
0.0046835872 -0.1529121 0.0015086007 0.6788551 0.18412974 -0.6890224 -0.7047612 -0.03188894
-0.09112772 0.061566494 0.046718433 -0.66054875 0.3427483 -0.1989759 0.08743394 0.12673245
0.05054548 0.045000654 -0.5465989 0.41217327 0.28765363 -0.14398713 -0.33643228 -0.72611445
-0.2031882 -0.12315009 0.27379465 -0.023391446 0.39484397 -0.5904689 -0.21063921 0.19087118
0.21726695 0.31134945 0.039764833 0.12656012 -0.57678264 0.1312655 0.27583537 -0.17386717
-0.7014021 0.5110559 0.20264928 0.07002101 -0.15415888 0.4162554 -0.23108073 0.78116953
-0.0006172369 0.20784217 0.2728067 -0.2773492 -0.2967655 -0.72544074 -0.035543997 0.20386133
0.052918576 0.40140542 0.4356099 -0.61279714 0.42569518 0.29471537 0.3140765 -0.008353153
0.3995567 -0.17517164 -0.4276055 0.05454302 0.22839141 0.17596652 -0.22289033 0.5569172
-0.13990012 -0.6519878 -0.6132006 0.47048914 -0.08306846 0.10705435 0.80299085 -0.44992343

StatefulPartitionedCall/sequential/dense/BiasAdd/ReadVariableOp:0 f4 [47]
00000000: bb51 96bb e342 653b 0bbd b7bb 634b 413a
00000010: ba5a f2b7 ab34 1f3a bf45 e43b 901f caba
00000020: a14f 9eba 05ba 53bb 0a3a bbba 64e9 913b
00000030: b8b6 d139 8bc7 f0b9 dc8e 6eba 5d10 a1bb
00000040: 2e55 273a e8fa 8ab8 e144 2e3b 517c 353c
00000050: 263e 82ba 99b6 943b d801 49ba 498c cb3b
00000060: adba 8138 d154 463c a8ca 37bb 4baa d43a
00000070: 7fb7 dd3a 4cd3 a0ba f429 6a3b ea29 bc38
00000080: 9da2 9d3a b8e5 36bb 19dc adba a286 e139
00000090: d168 a9b9 26b1 e43a 48b6 9d3a 1bfa f139
000000a0: 543f cc39 6d7b ebba 1562 6ebb 8493 20bb
000000b0: 15bf a33a f13c d23b d4c9 4f3a
-0.0045873797 0.0034982495 -0.0056072525 0.0007373599 -2.8890896e-05 0.0006073217 0.006966322 -0.0015420783
-0.0012078175 -0.0032306921 -0.0014284265 0.004452871 0.00039999723 -0.00045925038 -0.0009100267 -0.0049152807
0.0006383237 -6.627088e-05 0.0026591348 0.011077003 -0.0009936735 0.004538369 -0.0007667816 0.0062117917
6.1859704e-05 0.012105183 -0.0028044377 0.0016225068 0.0016915648 -0.0012270003 0.0035730572 8.972346e-05
0.0012026612 -0.002790792 -0.0013264447 0.00043015654 -0.00032312286 0.0017447814 0.0012032473 0.00046153445
0.00038957095 -0.0017965861 -0.003637438 -0.0024501989 0.001249286 0.006415956 0.0007926498

StatefulPartitionedCall/sequential/conv2d_1/Conv2D/ReadVariableOp:0 f4 [4, 2, 3, 3]
00000000: 02d7 d73f e08f 0b3e 69ab 813d 8a65 0c3f
00000010: eb8b cc3c 55ba a83d c3db f3bd 14c3 b63c
00000020: d264 a9bb 52de a23f 100a 603e 34c7 56be
00000030: d865 aabf 346b b0be 8fc4 023c 0cfa 1f3f
00000040: b42b fc3a 2f4c 38be 0d61 09be 1044 3e3f
00000050: 57df 223f e998 8b3d 75ee 5bbe a360 293f
00000060: c0ba 983f a4c9 873e 4d27 5d3f c88c 333f
00000070: 123a a63e 2bb1 813e cac0 6a3f 9b0a 093f
00000080: d01f 3d3f 3c44 c7be 361f 27be 1442 703e
00000090: efc3 643e 2fd3 773f 0b67 83bf c5ae 013f
000000a0: 47a9 8abd af0c 21bf 3b97 803f eb1e 9cbf
000000b0: b858 a83c eb7a 98bd 1cf8 34bd e900 213e
000000c0: b7a6 373e 6dc0 fdbe c083 1a3f 5ce4 f4bd
000000d0: 4a80 0cbf 76d6 d33e c22d 1bbf 730d 98be
000000e0: c164 0cbe bcb2 aabe e9de 993f 7481 cd3e
000000f0: 6dfc 13bf 60a2 4abf 96f8 07bd be2f e0be
00000100: beaa 283f 34c3 c63e d81a 89be fc4a 15bf
00000110: d1d7 46be 1f47 2e3e 0394 0bbf c3db 8bbf
1.686249 0.13629103 0.06331522 0.54842436 0.024969062 0.08238665 -0.119071506 0.022309817
-0.0051694894 1.2724097 0.21878839 -0.20974427 -1.331233 -0.3445679 0.0079814335 0.62490916
0.0019239099 -0.17997812 -0.13415928 0.74322605 0.6362204 0.06816275 -0.21477683 0.6616308
1.1931992 0.26521027 0.86388093 0.7013669 0.3246618 0.2533048 0.9170042 0.5353181
0.7387667 -0.38919246 -0.163205 0.23462707 0.22340368 0.96806616 -1.0265821 0.506573
-0.06770568 -0.6290998 1.0046152 -1.2196935 0.020550117 -0.0744532 -0.044181928 0.15723003
0.1793469 -0.49560872 0.60357285 -0.119576186 -0.54883254 0.41374558 -0.60616696 -0.2969776
-0.1371031 -0.33339489 1.2021152 0.40137827 -0.57807046 -0.79154015 -0.033196054 -0.43786424
0.6588553 0.38820803 -0.26778293 -0.5831754 -0.19418265 0.17019318 -0.5452272 -1.0926441

StatefulPartitionedCall/sequential/conv2d/Conv2D/ReadVariableOp:0 f4 [2, 1, 5, 5]
00000000: a29e a43e 241e 1bbe bad4 25bb b77d cb3e
00000010: bde6 373f d249 5d3e 0dde 77bf d187 4dbf
00000020: c88c 933c c9cf 273f 8e9a 98be a42d b8bf
00000030: d713 84bf 815d 473d d9a1 123f 0302 74be
00000040: 49cc 5dbf 94ee 5e3e 5bed 6d3f fe04 1b3f
00000050: 6fff 8abe d815 1dbe 09dc 923e 3cd5 403f
00000060: bc4b bb3e 9a5c bb3e 4f2b b63f 7611 fd3e
00000070: ac8e 56be 6d9b dabd 87b4 523e 5f78 633f
00000080: 5087 c13e cbf3 8cbe bf35 2dbe b110 5ebd
00000090: 4fd5 55be 7346 c1bd 4133 013e 87fa 143e
000000a0: 94c5 d6be af68 57bf 94d6 7abf 30d7 98be
000000b0: f359 de3e 864f 32be fdb8 55bf 85c6 57bf
000000c0: e829 36ba a403 233f
0.32152277 -0.15148216 -0.0025303797 0.3974435 0.71836454 0.21610191 -0.968232 -0.80285364
0.018011466 0.6555143 -0.29805416 -1.4388928 -1.0318555 0.048673157 0.5727821 -0.23828892
-0.8663984 0.21770698 0.929403 0.6055449 -0.27148005 -0.15340364 0.28683499 0.7532537
0.36581218 0.36594087 1.4231967 0.49427384 -0.20952863 -0.10674176 0.20576678 0.88855547
0.37798548 -0.2752975 -0.16915034 -0.054215137 -0.20882152 -0.09437265 0.12617208 0.14548694
-0.41947615 -0.8414411 -0.9798367 -0.29851675 0.43428 -0.17413148 -0.83485395 -0.8428729
-0.00069489935 0.6367743

StatefulPartitionedCall/sequential/batch_normalization_2/batchnorm/sub:0 f4 [121]
00000000: d8e0 48c0 5a87 2cbf 9003 523c 99aa 23be
00000010: c3dc 90c0 ac3d b13e e255 a1be 36aa 97bf
00000020: 727d bd3e 903f 6d3e 131b 2f3f a065 033d
00000030: bac9 57bf 507e 10bf 960d 143d 0778 83bf
00000040: 4902 683e fe61 b83e f40c 45be 9c03 4ebf
00000050: 8c9f 97bf 322b cc3d 4cd1 83bd cf05 a9bf
00000060: 1eec ae3e a030 76c0 82d4 02c0 be03 c3be
00000070: 2ca9 c43e 67bc 86be 86a8 8ebe 2293 32bd
00000080: fa1a 89be a4c7 9a3e e7fb bdbf aa48 2cbf
00000090: c327 e13e bc64 643e 8d37 02c0 b8d5 55be
000000a0: 9696 51bf 3455 ae3e 329b c83e faa0 c9bf
000000b0: 9e8f a3be 6238 9ebf 424e d8bf 8fef 213f
000000c0: 2e91 56c0 6cff ab3d a8d1 033d aa99 55be
000000d0: 1666 cabf 75ae afbe 3b8a 623f 5a6c a1bd
000000e0: c4dd 33bf 2474 0d3e 99f2 d53e 92ed 113e
000000f0: c060 e13e 5791 f2bf 06fb cebf 505d 1cc0
00000100: b69c bc3e 5cb8 08bf 8fff 0a3f 0a76 153f
00000110: 5539 2cbf c5be 66bf 0420 fbbe e2f4 8dbd
00000120: 6ed2 12be 60b4 093e 8eec 83bf 7017 9cbf
00000130: 8836 d8bf 7e3b 3cbe 4eba b23d e678 c43e
00000140: f4da 8f3d 0a5f 17bf 7d38 283e 3815 9b3e
00000150: 84fc be3d b8f6 113f 7808 66c0 8da7 78be
00000160: 93f2 42bf 909b c6bf fe6a 07bf cc52 413f
00000170: b3b0 f13e 69fb 683e 7458 e6be ecef e2be
00000180: 6a87 75be 4aa1 8abe 36b2 f0bf be8d 673e
00000190: 81cc 2f3e 1b51 a13e da32 8bbf f31d 0ebf
000001a0: dc97 353f 90dd 8cbe bd78 f8be c4da 8ebf
000001b0: 66b3 d6bf 3d82 80bf b003 5cc0 f330 323f
000001c0: a17c 4cc0 4a5d 92be 2215 b2bf 2a91 08bf
000001d0: 6a04 13bf 3260 98be f084 4dbf 3864 6cbe
000001e0: be67 2dbf
-3.1387234 -0.6739403 0.012818232 -0.15983047 -4.5269485 0.34617364 -0.31510836 -1.1848819
0.3700977 0.23168778 0.68400687 0.03207934 -0.84292185 -0.5644274 0.03614577 -1.0271004
0.22657122 0.36012262 -0.19243222 -0.8047426 -1.1845565 0.09969176 -0.064364046 -1.3204898
0.34164518 -3.8467178 -2.0442204 -0.38088793 0.38410318 -0.26315615 -0.27862948 -0.043597348
-0.26778394 0.3023044 -1.48425 -0.67298377 0.43975648 0.22304052 -2.0346406 -0.20882308
-0.818704 0.3404938 0.39180905 -1.5752251 -0.3194551 -1.2360957 -1.6898882 0.6325616
-3.352611 0.08398327 0.032182366 -0.208594 -1.5812404 -0.34312788 0.8849217 -0.078819945
-0.7026026 0.13813835 0.4178665 0.14250782 0.44019127 -1.8950604 -1.6170356 -2.4431953
0.3683831 -0.5340631 0.542962 0.5838324 -0.6727498 -0.9013484 -0.49047863 -0.06931473
-0.14338085 0.13447714 -1.0306566 -1.2194653 -1.6891642 -0.1838207 0.08726941 0.38373488
0.07024184 -0.59129393 0.16427799 0.30289626 0.09325507 0.5701709 -3.594267 -0.24282666
-0.7615139 -1.5516224 -0.5289763 0.75516963 0.47205123 0.22752155 -0.4498936 -0.4432367
-0.23977438 -0.2707618 -1.8804386 0.22612664 0.17167856 0.3150719 -1.0874894 -0.5551445
0.70934844 -0.2751279 -0.48529616 -1.1160512 -1.6773498 -1.0039746 -3.437725 0.6960594
-3.1951067 -0.285868 -1.3912699 -0.533465 -0.5742861 -0.2976089 -0.8028097 -0.23085105
-0.67736423

StatefulPartitionedCall/sequential/batch_normalization_2/batchnorm/mul:0 f4 [121]
00000000: a648 b83d f1ba 1e3d 1c91 593d f648 843d
00000010: f88f 083e e9fb 193d 0d0f aa3d d87a 383e
00000020: b5ad 9c3d 7ff6 b33d 35f9 503d fe56 d73c
00000030: 42d1 d83d b519 db3c 4be5 243d 101b f13d
00000040: 6fd6 6b3d 4320 3e3d 9010 203b 9ae0 513d
00000050: 54be df3d 6a62 d33d 56be 163e 4430 353d
00000060: ea24 b53d 2828 e53d 7503 233e b2db 463d
00000070: a735 383d 4bc3 a23d 9162 eb3d da97 ee3d
00000080: 7617 7c3b 478f 633d 24c4 1a3e 1661 603d
00000090: 67e1 413d aed4 283d 769f 253e fec1 ac3d
000000a0: c7e6 f33d 986b 313d 849b 403d 3a9e 0e3e
000000b0: 2f30 c43d 8a15 073e c07d 123e 14a3 243d
000000c0: 9003 be3d 000c db3d ffd0 ad3d 18d7 7a3d
000000d0: 3804 da3d 6d2a ba3d 4ba0 a43d 3b6a b83d
000000e0: 84a3 033e a66c cd3d 6156 9c3d 9b5a 383d
000000f0: c383 413d 24a9 543d 9cc9 fa3d cd47 823d
00000100: 9ceb 3e3d ed0b b23d 884d 7d3d 846f 3e3d
00000110: 8402 ad3d 05e6 0e3e 5de1 bf3d e09f 603d
00000120: e15f 853d db9e 453d d640 073e adea d33d
00000130: a589 453d 6cdb 343d cb24 63bc dbe0 233d
00000140: 3be5 3b3d f542 ae3c 8d99 233d bd93 593d
00000150: 3d0d 333d f95d 1e3d b636 e93d 5780 883d
00000160: c1cb 663d 8e71 093e 4813 753d 4585 ab3d
00000170: 6a36 2b3d c633 753d a705 fe3d c7dc a43d
00000180: d744 a03d 9bdd 4e3d f3e0 1a3e be9b 6f3d
00000190: 24ae 563d a222 503d bfc6 e73d a141 e13d
000001a0: 7925 4d3d 64bc bb3d 2a9e 373d 3c1e 123e
000001b0: 4d2c 013e 8b72 ed3d 6ddb d93d ca40 553d
000001c0: edc8 bc3d b27b ef3d 1555 193e 76c3 e13d
000001d0: 65f2 4e3d e5f8 4f3d 4c16 003e f9ae 463d
000001e0: a5b2 f73d
0.089982316 0.0387525 0.053116903 0.06459229 0.1333617 0.037593756 0.08303652 0.18015611
0.076503195 0.0878725 0.051018912 0.026286598 0.10586788 0.026745657 0.040257733 0.1177274
0.057577547 0.046417486 0.0024423935 0.051239587 0.10924974 0.10321505 0.14721045 0.044235483
0.088449314 0.111893 0.15919288 0.04854936 0.04497304 0.079474054 0.114934094 0.11650057
0.0038466132 0.05555656 0.15113884 0.05478009 0.0473341 0.041218452 0.16174111 0.084354386
0.11909252 0.0433155 0.04702331 0.13927546 0.09579503 0.1319181 0.14305782 0.040194586
0.09278023 0.10695648 0.084871285 0.061240286 0.10645336 0.09090123 0.08038386 0.09004637
0.12855345 0.10030489 0.07633663 0.045008283 0.0472448 0.051919118 0.12245485 0.06361351
0.046611413 0.08693681 0.061841518 0.04649307 0.084477454 0.13954933 0.093691565 0.05483997
0.06512428 0.0482472 0.13208327 0.10347495 0.04822697 0.04415457 -0.013863753 0.04000936
0.045872908 0.021272162 0.03994136 0.05311941 0.043713797 0.038663838 0.113873884 0.06665104
0.05634666 0.13422224 0.05983284 0.083750285 0.04179994 0.059863828 0.12403422 0.080499224
0.0782563 0.05050431 0.15124874 0.058498137 0.052412167 0.05081428 0.11317205 0.10998846
0.050084565 0.09166792 0.04482857 0.14269346 0.12614556 0.11594113 0.10637555 0.05206374
0.09218011 0.11693515 0.14973862 0.11023609 0.050524134 0.050774474 0.12508506 0.04850671
0.120946206

StatefulPartitionedCall/sequential/batch_normalization_1/batchnorm/sub:0 f4 [47]
00000000: 7033 e040 ee8a b7c0 2668 49c0 fa6b ddc0
00000010: 4592 1240 14a3 c93f b2b1 e1c0 3505 c5bf
00000020: 7abb 3fc0 24f4 8dc0 b847 51c0 387a 4440
00000030: 381a c53f 8d11 cfbf e24a 00c0 0206 7d40
00000040: 2c3e 5e40 d669 a0bf 51e7 d0bf 5a90 22c1
00000050: 330a 15c0 d8e5 8ec0 6ef9 de3f 8984 e8c0
00000060: 3ffb eac0 5b50 43c1 4ae9 6fc0 d2a0 49c0
00000070: 0fc9 98c0 6424 bebf 8cce 7cc0 a661 8c40
00000080: 26d8 6dbf 56a3 9bc0 8201 85c0 da4c a43f
00000090: 8812 5cc0 663f 75bf fc13 19c0 c8f3 d7c0
000000a0: 0ab1 8ac0 ac87 4640 1287 643f b372 13c0
000000b0: a08b 7240 47ed 663f 88ed ba3f
7.006279 -5.735709 -3.1469817 -6.9194307 2.2901776 1.5752892 -7.0529413 -1.5392214
-2.9958177 -4.4360523 -3.2700024 3.0699596 1.5398626 -1.6177231 -2.0045705 3.9534917
3.4725447 -1.2532299 -1.6320592 -10.160242 -2.3287475 -4.465557 1.741987 -7.2661786
-7.3431697 -12.207118 -3.7486138 -3.1504407 -4.7745433 -1.4854856 -3.9501066 4.38692
-0.9290794 -4.8636885 -4.156434 1.2835953 -3.438631 -0.95799863 -2.3918447 -6.7485085
-4.334111 3.1020308 0.892686 -2.3038757 3.789772 0.90205806 1.4603739

StatefulPartitionedCall/sequential/batch_normalization_1/batchnorm/mul:0 f4 [47]
00000000: bd7b 0c3f bb12 be3e cf2d f83e 5f18 bf3e
00000010: e297 033e 1a2d c93e c455 8c3e 8b13 bf3e
00000020: 40ae 013f dd5a e93e c75b ed3e da71 e53e
00000030: 814c 943e e6e4 ff3e 7cdb e43e 6342 723e
00000040: f603 8d3e fd95 a13e aff9 653e 11d1 a43e
00000050: b364 b13e d27b c53e 445d 993e f704 9b3e
00000060: de7b aa3e fdbf 083f ad3a f33e 544d 013f
00000070: ffd4 9d3e 80db c63e 1f4b e23e 094f bf3e
00000080: 7c73 f03e abf3 183f 299f 053f b180 6e3e
00000090: 8d12 bb3e 3a85 ad3e 4664 e33e db95 7d3e
000000a0: 19f8 a03e a62e cd3e 77a6 753e fb9f c43e
000000b0: 0593 0b3f b62c fb3e 5eab 483e
0.5487631 0.37123665 0.4847245 0.3732328 0.12850907 0.39292222 0.27409184 0.37319598
0.5065651 0.45577136 0.46359083 0.44813424 0.28964618 0.49979323 0.44698703 0.23658137
0.27542084 0.31559744 0.22458528 0.32190755 0.3464714 0.3857103 0.2995397 0.30277225
0.33297628 0.5341795 0.47505704 0.5050862 0.30826566 0.3883934 0.44197938 0.37364987
0.46963108 0.5974681 0.52195984 0.2329128 0.3653759 0.33890706 0.4441244 0.24764197
0.31439283 0.40074652 0.23989283 0.38403305 0.5452121 0.4905755 0.19596621

StatefulPartitionedCall/sequential/batch_normalization/ReadVariableOp_1:0 f4 [4]
00000000: 3155 03bf a6bd 1a3f 2238 ea3f edba 733f
-0.51301867 0.6044563 1.829838 0.952071

StatefulPartitionedCall/sequential/batch_normalization/ReadVariableOp:0 f4 [4]
00000000: be73 4540 00f1 b53f 7afb 0d40 6b08 6d40
3.0851893 1.4214172 2.218474 3.7036388

StatefulPartitionedCall/sequential/batch_normalization/FusedBatchNormV3/ReadVariableOp_1:0 f4 [4]
00000000: 52b9 7f48 67e4 fd48 2089 6d48 594e 5e48
261861.28 519971.22 243236.5 227641.39

StatefulPartitionedCall/sequential/batch_normalization/FusedBatchNormV3/ReadVariableOp:0 f4 [4]
00000000: be3d 90c2 eb39 adc3 c708 7342 00d3 4e42
-72.12059 -346.45248 60.75857 51.706055
